exports/drowsiness_model.onnx (onnx, 981867 bytes, 50 tensors)

backbone.features.0.1.weight f4 [32]
000000 59 db f3 3f 07 15 da 3f 26 20 32 40 a8 33 2d 41
       1.9051315 1.7037667 2.7832122 10.825111
000010 93 c3 b1 3f e3 7f 5b 3f de 04 e0 40 ee 04 7b 40
       1.388781 0.85742015 7.000594 3.922176
000020 f3 35 3c 40 f0 11 01 40 53 a4 db 40 95 ad df 3f
       2.9407928 2.0167198 6.863809 1.7474848
000030 42 35 82 3e 0c 86 07 bf 99 44 b4 3f 47 e9 0a 40
       0.25431257 -0.52938914 1.4083434 2.170488
000040 bb 2a 91 3f a3 bb fd 3e 16 fc dd 3f 5e 0c e3 40
       1.1341165 0.49557218 1.7342556 7.0952597
000050 7d a5 23 40 d2 05 34 40 5f c9 07 40 af db 00 40
       2.5569756 2.8128552 2.1216657 2.0134084
000060 9f ce 1e 40 da 56 ea 3f 18 7b 77 3f 17 1e 95 3f
       2.4813612 1.8307755 0.966722 1.1649808
000070 20 f4 99 3f df b9 90 40 c7 53 ed 3e d6 fa 42 3f
       1.2027626 4.5226893 0.4635298 0.76163995

backbone.features.0.1.bias f4 [32]
000000 1d 3d 1e 40 5a a6 14 40 08 f2 4a 40 67 19 c0 3f
       2.47248 2.3226533 3.1710224 1.5007752
000010 78 a7 26 40 7c d3 d6 3f 31 42 52 c1 74 05 2a 41
       2.6039715 1.678329 -13.14116 10.626331
000020 da 05 00 41 89 ed 2e c0 a6 c3 35 c1 71 88 1e 40
       8.001429 -2.733248 -11.360266 2.4770777
000030 c7 ba e6 bc bc 25 21 c0 21 b9 28 40 2b a5 e3 40
       -0.028165234 -2.5179281 2.6362994 7.113912
000040 cc 35 8c 40 0d b4 55 bf 71 d1 95 3f 38 b8 8b 40
       4.381567 -0.8347786 1.1704541 4.3662376
000050 75 08 fc 40 ac 47 8b c0 a7 f7 25 c0 6d 6a 1c 40
       7.8760324 -4.352499 -2.5932405 2.4439957
000060 95 da 79 c0 8d 1b d3 3f a7 b4 cf 3f 0a c6 18 40
       -3.9039662 1.6492783 1.6227006 2.3870873
000070 aa 2b 28 3c 26 08 2c 41 62 f7 85 3f 8c fd 62 3e
       0.010264317 10.751989 1.046612 0.22167033

backbone.features.1.0.block.0.1.weight f4 [32]
000000 44 07 eb 3f 1d e3 bc 3f fd 18 84 40 14 4c be 40
       1.8361592 1.475681 4.1280503 5.946787
000010 03 7e 0c 40 63 69 67 3f 4e 7c 4c 3f 18 f2 94 40
       2.1951911 0.9039518 0.79877174 4.6545525
000020 d1 b5 cd 3f d9 e3 12 3f 9c 2e 57 3f 0b 49 10 c0
       1.6071111 0.5737892 0.84055495 -2.2544582
000030 64 7b be 3f 8b 7e 83 40 22 a1 9e 3f 67 55 1f 40
       1.4881406 4.109197 1.2392924 2.4895875
000040 65 0c f8 3f e8 ba 8b 3f 3e 08 ad 3f 02 7d d0 40
       1.9378783 1.0916414 1.351814 6.5152597
000050 59 6e b6 3f 82 3a 02 3f 0b 58 cf 3f e0 3d f8 3f
       1.4252425 0.50870526 1.6198744 1.9393883
000060 6a 4d 16 40 69 49 9e 3f 8e 13 57 3f 29 53 a4 3f
       2.348475 1.2366153 0.84014213 1.2837878
000070 d5 04 45 3f 3b a9 be 40 3a 98 d6 3f 30 4f 65 40
       0.769605 5.958158 1.6765206 3.5829582

backbone.features.1.0.block.0.1.bias f4 [32]
000000 0a ef d7 3f de 0c 18 40 bc 2f 1c c0 17 85 ea be
       1.6869824 2.3757854 -2.4404135 -0.45804664
000010 6f 33 0c 41 9d 22 16 41 29 ab c4 bf 3d 63 d7 3f
       8.762557 9.3834505 -1.5364734 1.682716
000020 45 47 fd 3f b6 fa db be e2 35 b9 bf 28 32 18 40
       1.9787375 -0.42964715 -1.4469569 2.3780613
000030 04 99 d3 40 f1 7d ef bf ee 02 7f 40 84 e0 0f 40
       6.6124287 -1.8710309 3.9845538 2.2480783
000040 3a 29 d5 bf 25 8b cd 40 42 04 fc 3f 7e 88 ba bf
       -1.6653206 6.4232354 1.9688799 -1.4572904
000050 4b 53 0f 40 46 11 da 3b 59 64 ae 3d c9 b8 f6 3f
       2.2394588 0.006654891 0.085152335 1.9275142
000060 8b 83 44 3e 1d 4e 0f 40 9c 02 1a 41 90 de 25 40
       0.19190805 2.2391427 9.625637 2.5917091
000070 f8 5e 1e 41 d3 aa fb 3f 49 6d f7 3f 7d 1a 0f 40
       9.898186 1.9661506 1.9330226 2.2359917

backbone.features.1.0.block.1.fc1.bias f4 [8]
000000 4a 59 9c bf b3 fa 09 be 5e 94 a1 bf 0b c0 8a bf
       -1.2214749 -0.1347454 -1.2623403 -1.0839857
000010 06 d0 e0 bf 33 67 e8 bf 0e d7 c5 bf 7c c7 38 bf
       -1.7563484 -1.8156494 -1.5456254 -0.7217939

backbone.features.1.0.block.1.fc2.bias f4 [32]
000000 a7 3c e8 3f 11 23 82 40 83 0e 0c bf 6b 42 ee bd
       1.814351 4.0667806 -0.54709643 -0.11633762
000010 df 16 61 40 87 e2 91 3f 64 0f 61 3f 02 e2 55 bf
       3.517021 1.1397256 0.8791411 -0.83547986
000020 fb 11 30 40 88 8d 92 3f ba 51 fa 3e a5 bb c7 bd
       2.7510974 1.1449442 0.48890477 -0.09752587
000030 92 d4 2b 3f 26 c4 f3 be 8c f5 26 40 75 66 3b 3f
       0.6712123 -0.47610587 2.608737 0.7320321
000040 0e 2b 05 3f dd de c9 3e 04 00 38 bf 93 5e 00 c0
       0.5201882 0.39427844 -0.71875024 -2.0057724
000050 8b 5c d5 3f b4 68 67 3f 87 fe a5 bf 5c 62 23 40
       1.6668867 0.9039414 -1.29683 2.5528784
000060 43 e0 c4 bf 78 59 6e bf 19 de 1f 40 16 1e 75 40
       -1.5380939 -0.9310527 2.4979308 3.8299613
000070 82 1c 55 bb 01 d7 9c bf 10 c1 87 40 d8 a9 08 c0
       -0.0032518213 -1.2253114 4.242317 -2.1353664

backbone.features.1.0.block.2.1.weight f4 [16]
000000 d0 70 cd 40 06 00 c5 40 bb 01 c8 40 ac 53 d2 40
       6.420021 6.156253 6.2502112 6.572714
000010 2d 9f ab 40 e0 79 d1 40 54 5d b4 40 bb 7d e6 40
       5.3631806 6.5461273 5.6363926 7.202848
000020 b9 42 d4 40 32 61 b4 40 6c 33 e7 40 1f 91 ca 40
       6.633145 5.6368647 7.225027 6.330215
000030 81 5f 9f 40 f2 0f d4 40 d0 d3 d4 40 15 64 e9 40
       4.980408 6.6269464 6.650856 7.293467

backbone.features.1.0.block.2.1.bias f4 [16]
000000 fa a4 7e ba 0e 16 fe bb 70 0a bc ba 94 08 83 39
       -0.00097139145 -0.007754094 -0.0014346372 0.00024992658
000010 ef 34 eb 3b ff 6a 12 3b 07 37 ee b9 35 f5 53 bb
       0.007177941 0.0022341607 -0.00045435896 -0.00323422
000020 95 a7 6b bb 1f 87 1c bc 8e c4 c8 bb c0 b9 12 bc
       -0.003595804 -0.0095537 -0.006126947 -0.008955419
000030 b1 34 e3 ba a1 32 4d bc f2 be d1 3a bb a0 7a bb
       -0.0017334429 -0.012524278 0.0016002341 -0.0038242775

backbone.features.2.0.block.2.fc1.bias f4 [4]
000000 2e a0 fa 3e 2d 29 f1 3f 98 78 e5 bc 88 0f 29 be
       0.48950332 1.8840691 -0.028011605 -0.16509831

backbone.features.2.0.block.3.1.weight f4 [24]
000000 34 0e d2 40 93 0d e6 40 cb 15 af 40 66 1c 06 41
       6.564234 7.189157 5.4714103 8.381933
000010 ee 45 e1 40 97 1e ca 40 f8 4d 04 41 27 82 c6 40
       7.0397863 6.316234 8.269035 6.2033877
000020 f6 18 05 41 59 b6 dd 40 3d 8b b1 40 80 5f 5b 40
       8.318594 6.928509 5.548247 3.4277039
000030 85 b6 ae 40 03 cf f7 40 9e c9 07 41 53 0e ad 40
       5.45978 7.74402 8.486723 5.4079986
000040 8f 90 c6 40 1e 1f 04 41 7d 00 d8 40 b3 f4 0e 41
       6.2051463 8.257597 6.7500596 8.934741
000050 18 bc f2 40 ce 18 0d 41 19 de ca 40 81 8b b7 40
       7.5854607 8.818556 6.3396115 5.7357793

backbone.features.2.0.block.3.1.bias f4 [24]
000000 a1 f8 77 3b 54 6e 9d 39 c8 45 b5 bb 5e 0a 5f ba
       0.0037837403 0.00030027574 -0.005532 -0.000850832
000010 30 63 1b bb 29 41 65 3b 1d a9 49 ba 6c 0c d1 39
       -0.0023710243 0.0034981465 -0.00076927413 0.0003987284
000020 29 1c 28 bb d2 dc 19 bb 2e 09 04 bb c6 95 7c 3a
       -0.002565155 -0.0023477566 -0.0020147073 0.0009635355
000030 4a 2d 07 bb 41 b4 d4 3a 70 6d 65 ba f8 26 0e bb
       -0.002062636 0.0016228036 -0.0008751964 -0.0021690708
000040 c5 5f cb b9 ec c8 47 ba f7 3b 9b 3a 56 b3 08 bb
       -0.0003879053 -0.0007621187 0.0011843432 -0.0020858846
000050 bd 9e 9c ba 18 c2 8f 3a 19 06 8d 3a 0b ec d0 ba
       -0.0011949163 0.0010967879 0.0010759264 -0.0015939487

backbone.features.2.1.block.2.fc1.bias f4 [6]
000000 3a 17 d6 be 1a 09 34 bf b8 84 16 40 8a 0d bf 3f
       -0.41814595 -0.7032639 2.3518505 1.4926007
000010 56 19 27 40 90 5f a0 3f
       2.6109214 1.2529163

backbone.features.2.1.block.3.1.weight f4 [24]
000000 bc 3c b6 40 7f b1 8b 40 81 80 7d 3f ff 01 9d 40
       5.694914 4.365417 0.99024206 4.9064937
000010 67 9f ad 40 b3 88 ec 40 70 a1 9c 40 4e 42 a7 40
       5.4257083 7.391687 4.8947067 5.226844
000020 e1 97 86 40 3d 91 b7 40 49 79 7b 40 52 8d 03 41
       4.20604 5.7364793 3.9292777 8.222002
000030 17 72 a2 40 4f 3e 9a 40 20 43 a8 40 f7 d1 83 3f
       5.076427 4.820106 5.258194 1.0298451
000040 6f 8e 15 40 99 d8 6f 40 62 16 a3 40 55 f7 22 c0
       2.3368185 3.747595 5.0964823 -2.546346
000050 b8 1d aa 40 df 3b 8c 40 47 82 a8 40 a1 86 7a 3f
       5.316128 4.3823085 5.265903 0.9786168

backbone.features.2.1.block.3.1.bias f4 [24]
000000 87 33 7d 40 0c 86 54 40 49 8b 1e bd a5 08 30 c0
       3.95627 3.3206816 -0.03870705 -2.7505276
000010 75 97 eb bf e2 df a6 c0 d6 70 12 c0 66 26 1f bf
       -1.8405596 -5.2148294 -2.288137 -0.62167966
000020 db c7 b0 bf 87 6e b3 bf d0 73 03 40 bc 61 84 3f
       -1.3810991 -1.4018105 2.0539436 1.0342326
000030 5e c4 36 40 cc 99 08 c0 79 38 16 40 16 72 b1 3d
       2.8557353 -2.134387 2.3471968 0.08664338
000040 b3 6b 96 40 ce 68 ea bf 5e b4 eb 3f 78 ec 4b bf
       4.700647 -1.8313234 1.8414419 -0.796577
000050 04 07 75 c0 f5 b3 d7 bf 8c 30 84 bf ca e3 62 be
       -3.8285532 -1.6851794 -1.0327315 -0.22157207

backbone.features.3.0.block.2.fc1.bias f4 [6]
000000 69 fc ca 3f ea 49 37 3f ec 94 98 3e 7e b6 65 3e
       1.585828 0.7159716 0.29801118 0.22432896
000010 5c e3 66 3f 45 3b 8d 3f
       0.9019067 1.1033713

backbone.features.3.0.block.3.1.weight f4 [40]
000000 12 d0 1f 41 36 80 a1 40 58 82 a7 40 34 bf b8 40
       9.988298 5.0469007 5.234661 5.77334
000010 25 02 b6 40 eb a7 b1 40 68 3c c3 40 61 90 d4 40
       5.687762 5.551748 6.101124 6.6426244
000020 63 45 b0 40 0c 91 f8 40 b4 ce b8 40 e0 bd b1 40
       5.50847 7.767706 5.7752323 5.554428
000030 47 d5 a7 40 d3 97 dc 40 66 7f b4 40 c9 8a f4 40
       5.244785 6.893533 5.6405516 7.6419415
000040 c5 7e c7 40 3b 0c b4 40 4c 9d e8 40 f0 86 c3 40
       6.234225 5.626493 7.2692013 6.110222
000050 bb 93 b0 40 41 00 e2 40 82 2e fb 40 17 03 d6 40
       5.5180335 7.062531 7.849427 6.687877
000060 f1 96 f4 40 69 8d aa 40 06 ae ac 40 9d 00 c3 40
       7.6434255 5.329762 5.396243 6.093825
000070 7a 7d a9 40 0c 12 ac 40 9f c1 e2 40 0e 4d c9 40
       5.296567 5.377203 7.0861354 6.290656
000080 d8 8f b9 40 b2 f2 af 40 49 50 bd 40 7c 47 b2 40
       5.798809 5.498376 5.9160504 5.571226
000090 2c 9a 01 41 72 e7 cb 40 70 c2 f5 40 0c 39 c2 40
       8.10014 6.3720026 7.679985 6.0694637

backbone.features.3.0.block.3.1.bias f4 [40]
000000 2f 95 3c bb ce e6 07 ba b7 91 18 ba 2f 8a f2 39
       -0.0028775444 -0.0005184234 -0.0005820053 0.00046260792
000010 cc 69 fd b9 84 f3 62 b9 be 01 04 3a 4c bc d5 b9
       -0.00048334745 -0.00021643756 0.000503566 -0.00040766818
000020 36 15 88 39 db 45 05 3b b0 75 c2 b9 bd 85 29 b9
       0.00025955745 0.0020335827 -0.00037090247 -0.00016166917
000030 c6 ae 44 ba be 40 37 3a 3e f6 13 ba 99 81 42 b8
       -0.000750285 0.00069905433 -0.0005644298 -4.63739e-05
000040 0c b3 48 ba 7e af 9a 3a 50 32 e4 b9 48 c5 31 bb
       -0.00076560746 0.0011801568 -0.00043525035 -0.0027125645
000050 c9 5f 10 3a 1a 03 3a 3a 88 f0 02 3a 95 8e 88 ba
       0.0005507437 0.0007095799 0.00049949484 -0.0010418469
000060 2c a1 be b9 4e 4b f9 b8 0d 7f bc 3a af 9b 7b 3a
       -0.00036359706 -0.00011887272 0.0014381126 0.0009598089
000070 b5 b4 1d 3a e1 90 e0 b9 e8 21 49 bb ae e4 53 ba
       0.0006016002 -0.00042832553 -0.0030690376 -0.0008083087
000080 69 4f eb ba c8 33 89 b9 04 9f 87 39 66 f4 ba b9
       -0.0017952743 -0.00026169256 0.00025867682 -0.00035658776
000090 b6 86 2e ba 26 82 35 3b a7 c5 ce 39 06 ba d8 b9
       -0.0006657647 0.0027695983 0.00039438644 -0.0004133733

backbone.features.3.1.block.2.fc1.bias f4 [10]
000000 26 ec 87 3f f6 20 81 3f a1 21 1f 40 b0 93 86 bd
       1.0618942 1.0088184 2.4864275 -0.06571138
000010 e4 87 d6 3f ea d3 b7 3f 90 5c 72 3f 11 4d 88 3f
       1.676022 1.4361546 0.9467249 1.0648519
000020 e7 0e 92 3f 2c 46 85 3f
       1.1410798 1.041204

backbone.features.3.1.block.3.1.weight f4 [40]
000000 48 ad a0 3f 84 5e f8 3f d2 45 57 40 26 de 2d 40
       1.2552881 1.9403844 3.3636365 2.7166839
000010 95 48 f6 3f db 2a 88 40 43 78 ce 40 54 96 14 40
       1.92409 4.2552314 6.4521804 2.3216753
000020 20 84 e0 3f f2 14 d7 40 92 1b 93 40 ba e9 f9 3f
       1.7540321 6.721307 4.5971155 1.9524453
000030 b0 71 46 40 33 0b f4 3f b6 9e 56 40 de 39 da 3f
       3.100689 1.9065918 3.353437 1.704891
000040 b8 23 d3 3f 05 a9 3e 40 10 c6 02 40 16 6e d0 3f
       1.6495275 2.9790661 2.0433388 1.6283596
000050 df 8e e6 3f c7 b4 02 40 ef 41 e3 3f 3a 50 07 40
       1.8012351 2.0422838 1.7754496 2.1142716
000060 65 69 c8 3f e0 07 38 40 76 8a 4c 40 38 d9 19 40
       1.5657164 2.8754807 3.195951 2.403883
000070 13 73 4c 40 44 3c ea 3f 8b 49 d1 3f c7 c3 06 40
       3.1945236 1.8299642 1.6350569 2.1056993
000080 eb e9 25 40 fa 41 01 40 04 67 2b 40 bd 35 8a 40
       2.5924022 2.019652 2.6781626 4.31906
000090 d4 c7 bb 40 ad ad dd 3f 8a be e4 3f 1f dd 03 40
       5.868143 1.7318627 1.7870648 2.0603712

backbone.features.3.1.block.3.1.bias f4 [40]
000000 32 a3 fa 3f 00 d8 54 bf 77 81 25 c0 96 d2 f2 bf
       1.9581053 -0.8314209 -2.586027 -1.8970516
000010 0d f2 e8 bf c1 13 9f be 7c 4c 6c c0 fb 67 e3 bf
       -1.8198868 -0.3106976 -3.6921682 -1.7766107
000020 5e d0 76 bf 9a 18 27 40 ae 23 99 3e 71 94 87 bd
       -0.96411693 2.6108766 0.29910034 -0.0662011
000030 e5 f5 7a 3f e5 6f 85 bf 35 cb 4d bf 32 c6 c4 bd
       0.98031455 -1.0424773 -0.80388194 -0.09608115
000040 ad c2 ff bf d9 04 84 3f c5 48 ba 3f 25 af 91 bf
       -1.9981285 1.0313979 1.4553457 -1.1381575
000050 70 84 44 3f 3d 3c 42 bf 04 c6 c1 be 22 79 34 40
       0.76764584 -0.75873166 -0.37846386 2.8198934
000060 48 4c 69 3c 99 78 7a 3e a5 70 49 bf 99 c6 91 3f
       0.014239378 0.24460067 -0.78687507 1.1388732
000070 f4 04 60 be f2 cc 96 3f 62 9d 5a bf b7 18 6e bf
       -0.2187689 1.1781294 -0.853964 -0.9300646
000080 17 09 d0 bf 71 02 0d bf 37 db 1d bf a2 15 ca bd
       -1.6252774 -0.5508185 -0.6166262 -0.098674074
000090 6c 85 24 3f 75 ab 8f 3f ad 52 78 3d d3 e9 04 bd
       0.64266086 1.12242 0.06062572 -0.032449555

backbone.features.4.0.block.2.fc1.bias f4 [10]
000000 77 1c 8c be b5 31 b0 be 3c 4b 69 be a0 d5 d5 be
       -0.27365467 -0.34412923 -0.22782606 -0.41764545
000010 74 a2 5d 3e 6b 87 b2 3e 44 8c 5f be 93 18 a9 3e
       0.21644002 0.3486894 -0.21830851 0.3302656
000020 f8 6a 5d 3e c9 47 b6 bc
       0.21622837 -0.022251027

backbone.features.4.1.block.2.fc1.bias f4 [20]
000000 0d 53 5b 3f 2d 2b e3 3f 2e 66 56 3f 94 50 da 3e
       0.856736 1.7747551 0.83749664 0.426396
000010 a9 0f ff 3f f1 3a 65 3f 11 98 fa bd 2e ba 0b 3f
       1.9926654 0.8954306 -0.122360356 0.5458096
000020 ed e6 27 3f a2 98 27 3f 58 b9 8b 3f 67 1e 8d be
       0.6558674 0.65467274 1.0915937 -0.27562258
000030 04 4b ac 3f 1c b9 c5 3f 27 89 33 3f cf 6c bb 3f
       1.3460393 1.5447116 0.7013115 1.4642581
000040 09 81 dd 3f 90 eb 9c 3f 09 ac 30 3f 62 58 86 3f
       1.7305003 1.2259388 0.69012505 1.0495722

backbone.features.4.2.block.2.fc1.bias f4 [20]
000000 b8 a4 03 40 0e 8e 93 3f fc 5d f7 3e 6e 4c 9d 3f
       2.0569286 1.1527727 0.48313892 1.228895
000010 1a 98 7e 3c ca 14 42 3f d3 25 62 3f 9f 0e 91 3f
       0.0155391935 0.7581297 0.88338965 1.1332587
000020 5b 69 36 3f 06 0c b6 3e 37 57 7f 3f ce 29 b2 3f
       0.7125451 0.35556048 0.99742454 1.3919008
000030 a6 ed b8 3f 54 ea 8b 3f 90 0d 60 3f e9 f6 0e 3f
       1.4447525 1.0930886 0.87520695 0.55845505
000040 bf 8b 5f 3f 70 c0 5c 3f e2 c2 38 3f b8 bb fc 3e
       0.8732261 0.86231136 0.7217237 0.49361968

backbone.features.5.0.block.2.fc1.bias f4 [20]
000000 63 8f 45 3f ff 1b 06 3f 0f 49 f2 3f 8f 0f 99 3f
       0.77171916 0.5238647 1.8928546 1.1957873
000010 d7 5b bc 3f b7 c4 4d 3f 11 84 c8 3f 2e ad 38 3f
       1.4715527 0.8037829 1.5665303 0.7213925
000020 ca 5f b2 3f df 4a ff 3d 64 ba e4 3f 79 10 73 be
       1.3935483 0.124654524 1.7869382 -0.23736753
000030 b1 ad 89 bf 66 6d 65 3f 8a 92 02 40 56 d8 db 3f
       -1.0756131 0.89620054 2.040194 1.7175395
000040 a9 9b 31 3f f3 c3 5a 3f e0 89 94 3f c0 9d bc 3f
       0.69378144 0.85455245 1.1604576 1.4735641

backbone.features.5.1.block.2.fc1.bias f4 [28]
000000 d6 b6 4b 3f f2 00 2f 3f d2 a1 84 3f 78 98 96 3f
       0.7957586 0.6836082 1.0361884 1.176528
000010 24 e7 cc 3f af 4c 86 3f 67 68 7e 3f 22 86 76 3f
       1.6008039 1.0492152 0.99378055 0.9629842
000020 1d 80 7c 3e 32 8d 99 3f b1 4a 75 3e a3 fe 18 3f
       0.24658246 1.1996214 0.23954274 0.59763545
000030 fd 51 57 3f 61 79 55 3f d0 25 9a 3f 66 d2 05 3f
       0.8410948 0.83388335 1.204279 0.5227417
000040 72 45 fa 3e ca 53 c3 3f 80 84 5a 3f fe 65 90 3f
       0.48881108 1.5259945 0.8535843 1.1281126
000050 b6 67 2b 3f d4 f7 9f 3f 5a 7b a3 3f e5 fe 9c 3e
       0.66955125 1.2497506 1.2772019 0.3066322
000060 f3 22 76 3f cb 81 95 3f dc 67 30 3f 8f 5a 9b 3f
       0.9614708 1.1680235 0.68908477 1.2137011

backbone.features.5.2.block.2.fc1.bias f4 [28]
000000 2f e0 19 3f 9a 97 68 3f be e6 ea 3e 4b 5a 3b 3f
       0.601077 0.90856326 0.45879167 0.7318465
000010 63 9b 0e 3f 44 6e 06 3f fd b5 52 3f 85 2e f3 3e
       0.5570585 0.52512 0.8230894 0.4749643
000020 17 9a d2 3e f0 87 50 3f 8f e0 3e 3f 1d 04 68 3f
       0.41133186 0.81457424 0.745614 0.90631276
000030 f0 8b ce 3e e5 0a 2e 3f 8d 6d 58 3f 01 58 15 3f
       0.4034114 0.67985374 0.8454216 0.5833741
000040 d5 68 4a 3f 41 be 02 3f cd 22 89 3f 9d 28 2f 3f
       0.7906621 0.51071554 1.0713745 0.68421346
000050 96 a1 cc 3f d3 ad 48 3f 98 27 9b 3f ae 11 f0 3e
       1.5986812 0.78390235 1.2121458 0.4688849
000060 bc 1f 5e 3e 81 47 9b 3f 8f 8f 36 3f b5 86 8e 3e
       0.21691793 1.2131196 0.71312803 0.27837148

backbone.features.6.0.block.2.fc1.bias f4 [28]
000000 82 2f 24 3f eb 41 cc 3f 32 67 d4 3e 00 f8 10 40
       0.6413499 1.5957617 0.41484982 2.2651367
000010 17 4b 4b 3f e0 18 73 3f cf 63 27 3f 37 ea 0c 3e
       0.79411453 0.9495983 0.6538667 0.13761221
000020 2d a3 a4 3f 20 61 43 3f 92 c3 98 3f 27 94 26 3f
       1.2862297 0.76320076 1.1934683 0.6506981
000030 61 41 0f 40 39 70 f0 3f 5b 03 ff 3f 0a dc e3 bc
       2.2383654 1.8784248 1.9922899 -0.027814884
000040 cb 33 9c 3f 1f ea c0 3e eb e7 35 3f 6f 5c f4 3d
       1.2203306 0.3767862 0.71057004 0.11931693
000050 75 30 6a 3e df 74 3d 3f ed 64 3a 3f 3b 7e 00 40
       0.22870047 0.74006456 0.7281025 2.0077045
000060 be c8 4d 3d ec 97 a4 be 3e 5b 0a 3f f1 3d d5 bf
       0.05024027 -0.32147157 0.54045475 -1.6659528

backbone.features.6.1.block.2.fc1.bias f4 [48]
000000 ea 22 0c 3f 29 87 8d 3e fc 39 28 bd d9 5d b7 3d
       0.54740775 0.27642182 -0.041070923 0.08953447
000010 a9 63 0f 3e 50 bd 50 be bc be 98 bd c0 a1 d5 bd
       0.14002861 -0.20384717 -0.07458255 -0.10431242
000020 70 83 2a 3f 44 5f 0f bf d4 46 97 3c 9d 84 b3 be
       0.6660681 -0.5600474 0.01846639 -0.35062113
000030 15 d3 4b 3f e9 c4 fe be ff 1d 04 3e ca b6 dc bd
       0.7961896 -0.49759606 0.12902068 -0.10777052
000040 dd 7b 34 3f 2e 76 31 3e 2d 0b 9f 3e 8a a1 51 3e
       0.705015 0.17330238 0.31063214 0.20471779
000050 4f 9a d7 3d 72 d3 0e 3f e5 a5 d8 bd 8d dd a1 bc
       0.10527479 0.5579139 -0.10578517 -0.019758964
000060 86 80 08 3f 0b dc 0e 3f f0 7a 1c be 7a 4b 2c 3d
       0.5332111 0.5580451 -0.15281272 0.042064168
000070 6d a0 88 3f 08 e5 33 3d 30 fd ed 3d 3a 4f f1 3e
       1.0673958 0.043919593 0.11620557 0.47130758
000080 81 ea 19 3f 1c 34 69 3e b8 a5 2b 3f 6f 1c c4 3e
       0.6012345 0.22773784 0.6704974 0.38302943
000090 17 3d 80 3e 8e e8 e8 bc 6f 9d 18 3e 0a 96 f9 3e
       0.25046608 -0.028431203 0.14903806 0.48747283
0000a0 d9 c4 8d 3f bf b5 84 3e 12 67 3d 3e 9b fb 6b be
       1.1075698 0.2591991 0.1849635 -0.23045199
0000b0 c6 89 cf 3c 89 32 fe 3e 04 ee bf be 30 74 01 3f
       0.02533425 0.4964793 -0.3748628 0.50567913

backbone.features.6.2.block.2.fc1.bias f4 [48]
000000 50 60 32 bf 10 4f de 3f c8 82 e1 3e 3f 71 2b 3e
       -0.6967821 1.7367878 0.4404509 0.16742419
000010 71 e3 5a be 2a 99 1d 3e 9a 1a 02 3f c0 ef 19 bc
       -0.21375825 0.15390459 0.5082184 -0.00939554
000020 0e c1 2b 3e ba d9 ae 3e 92 20 e6 3e 24 f9 a8 3e
       0.16772863 0.34150487 0.44946724 0.3300258
000030 26 bf 72 3f 36 af eb be 8e 73 76 3e 6b 52 52 3f
       0.9482292 -0.46032113 0.24067518 0.8215701
000040 18 ef 6b 3f bc df cb be 54 50 26 3f 09 72 6e bb
       0.92161703 -0.39819133 0.6496632 -0.0036383888
000050 0d a7 da 3e 13 87 c2 3e 66 97 41 3e ed bb 71 3f
       0.42705575 0.37993678 0.1890541 0.94427377
000060 ec 50 64 3e 6c b4 07 be 26 d0 a9 3e ef 4f 5c 3f
       0.22296494 -0.13252419 0.33166617 0.8605947
000070 68 ba 15 3f 92 e2 fa be 14 a1 47 3f 89 54 a3 3e
       0.5848756 -0.49000984 0.7798016 0.31900433
000080 81 4b 12 3f d7 15 27 3f 79 2b e2 3e 57 27 6b 3e
       0.5714646 0.652677 0.44173792 0.22964226
000090 dc 34 20 3e 0f b1 92 3e f0 4a 13 3f df 24 42 be
       0.15645164 0.2865071 0.5753622 -0.18959378
0000a0 20 f2 35 3f 7c 45 8e bd f9 98 81 3f cd 79 a1 3e
       0.7107258 -0.06946847 1.0124809 0.3153824
0000b0 ae 6c f4 3e ff ca 83 be 56 3a 67 3e f5 3a 4b 3f
       0.47739166 -0.2574081 0.22580847 0.79386836

backbone.features.6.3.block.2.fc1.bias f4 [48]
000000 0f b6 ed 3f d1 38 39 3d ab 0b 35 3e 68 42 df bd
       1.8571185 0.0452202 0.17680232 -0.10901338
000010 62 a8 93 3c 42 27 86 be 6b a5 44 3f 59 58 53 3e
       0.018024627 -0.26201826 0.7681491 0.2063917
000020 19 7e ae 3f bb 6f d1 3e c7 7c a9 be 3f 1a 16 bc
       1.3632232 0.40905556 -0.3310301 -0.009161531
000030 5b 4e c8 3f 47 40 de be 92 18 ea 3c 72 0c 09 40
       1.5648912 -0.43408415 0.02857617 2.1413846
000040 6f 20 6e 3e d1 e7 59 3e bc 74 65 3f eb 27 90 3f
       0.2325456 0.21279837 0.8963125 1.1262182
000050 e0 c6 08 bd b3 95 89 3e 16 ba cb 3f 81 e6 dc 3d
       -0.033392787 0.26872024 1.5916164 0.10786153
000060 e9 5a 01 3f a4 fa 9a 3f 01 90 05 3d b6 82 d6 be
       0.5052934 1.210774 0.032608036 -0.418966
000070 c1 7f 27 be 0d 34 fd 3d 78 ea 81 3e 72 ab 09 3f
       -0.16357328 0.123634435 0.25374198 0.5377723
000080 cc 35 36 3e a4 4c 07 3f 40 b1 d6 3d 28 45 64 3e
       0.1779396 0.5285132 0.104830265 0.22292006
000090 03 c1 c3 3f 38 f7 93 3e ff 38 47 3e af 1b 15 be
       1.5293278 0.2889955 0.19455336 -0.14561342
0000a0 25 73 25 3f af bb 9e 3e 9e 61 18 3e a8 b7 88 bd
       0.6462882 0.31002566 0.14880988 -0.06675655
0000b0 10 a2 6a 3e c7 0a 39 3e 56 33 2b 3a e4 8c 1d be
       0.22913384 0.18070517 0.0006530782 -0.15385777

backbone.features.7.0.block.2.fc1.bias f4 [48]
000000 e7 09 b6 be 30 d9 98 bf ba e8 56 bf 05 ed 46 bf
       -0.3555443 -1.194128 -0.8394886 -0.77705413
000010 73 fd 83 bf 4e f7 d6 bf fb 0b 2b bf e0 f3 90 bf
       -1.0311722 -1.6794221 -0.66815156 -1.1324425
000020 61 6a 0b c0 2c e1 9c bf 0c 40 8a bf 5a 38 be be
       -2.1783679 -1.2256217 -1.0800796 -0.37152368
000030 a7 3a 5b bf d3 30 2c bf 92 84 23 bf 7c 4f 3a bf
       -0.8563637 -0.67262 -0.6387416 -0.72777534
000040 58 33 1f bd d2 ec 25 40 ba 8a bd bf 93 2a 21 bf
       -0.038867325 2.5925794 -1.4807961 -0.6295559
000050 0f f4 e6 be 47 1c 6c bd 91 58 8d bf f1 8d 44 bf
       -0.45108077 -0.057644155 -1.1042653 -0.76779085
000060 46 45 a0 be 97 8a 70 bf 1f 73 0f c0 1b 59 7e bf
       -0.3130285 -0.9396147 -2.2414014 -0.99354714
000070 e2 33 39 bf 29 8c d1 be 8e d6 62 bf 91 ab d1 be
       -0.7234479 -0.40927246 -0.88608634 -0.40951207
000080 f5 82 86 be 91 80 08 c0 9f 24 ba bf cf 1a 8d bf
       -0.26271787 -2.132847 -1.4542426 -1.1023806
000090 e6 7e 9d bf e6 fd 35 bf 04 30 7f bf 3c 81 46 bf
       -1.2304351 -0.71090543 -0.9968264 -0.77540946
0000a0 70 42 e2 be 6e a1 02 bf fc ae 47 3f bc cb 0f be
       -0.44191313 -0.5102757 0.7800138 -0.14042562
0000b0 8e 46 98 bf 89 5e eb be d3 24 cf bf b7 96 67 bf
       -1.1896532 -0.45970562 -1.6183113 -0.9046435

backbone.classifier.1.bias f4 [2]
000000 9f c7 bd 3c 7f 93 57 3c
       0.023166476 0.013157724

backbone.features.0.1.running_mean f4 [32]
000000 c8 8a a9 3d 04 92 cf 3d b8 91 5e 3c eb 95 3a 3d
       0.082784235 0.10135272 0.013584547 0.04555313
000010 c5 d9 ce bd 30 b0 fa be 44 c4 64 bf b1 60 8f 3f
       -0.1010013 -0.48962545 -0.8936198 1.1201383
000020 54 5b 74 3f 58 bc 4b 3f b4 8b 89 bf d4 b4 25 bd
       0.95451856 0.79584265 -1.0745759 -0.040455654
000030 5f 95 74 bf a1 2a 21 bf 83 2e fc bd 96 ab 04 3e
       -0.9554042 -0.6295567 -0.12313559 0.1295608
000040 6f 62 10 be de de 32 3f 9d b4 e2 3e 2a c8 80 3e
       -0.1410005 0.6987132 0.44278422 0.25152713
000050 4e a9 6c 3f 4d 60 30 3f e3 3a ae 3e 7c 5a b8 3d
       0.9244584 0.68896943 0.34029302 0.090016335
000060 78 4a f1 be a1 86 19 bf 6e 63 ec 3e 38 8d 2f bc
       -0.47127128 -0.5997105 0.4616961 -0.0107148215
000070 a9 37 5a be 44 7c 80 bf ce bf d0 39 1e 49 ad 3e
       -0.21310295 -1.0037923 0.00039815757 0.33844846

backbone.features.0.1.running_var f4 [32]
000000 54 ca 4c 40 b7 c2 ee 40 8f d9 cd 3e 72 05 8a 41
       3.1998491 7.461269 0.40205047 17.252659
000010 83 67 34 3f 6c 8d 2d 3f 74 87 4f 41 91 d1 a2 41
       0.70470446 0.6779392 12.97057 20.352327
000020 55 33 75 41 6d 98 39 41 a9 68 26 42 ce 34 19 40
       15.325032 11.599713 41.602207 2.393848
000030 fe 12 77 41 46 6f c9 40 77 85 68 40 c3 1c 54 3f
       15.442137 6.294833 3.633146 0.82856387
000040 f5 d7 42 3f a8 c5 fb 40 9f 5e b6 3f 15 64 44 40
       0.76110774 7.867878 1.4247626 3.0686085
000050 30 e3 78 41 1c df 01 41 f0 3d ef 3f b1 22 09 40
       15.555466 8.11697 1.8690777 2.1427424
000060 e8 ea 8a 40 4c 49 36 40 ed 7d 29 3f ee f6 f4 3e
       4.341175 2.8482237 0.6620777 0.47844642
000070 a7 a4 68 40 c4 7a 83 41 2f cd ea 40 77 fd c7 40
       3.6350496 16.434944 7.337547 6.2496905

backbone.features.1.0.block.0.1.running_mean f4 [32]
000000 29 f4 f6 3f 72 a7 39 40 f7 de 7a 3f 38 6a c6 c0
       1.9293262 2.900845 0.9799647 -6.200466
000010 2e 94 5e 3e 82 11 3f bf a2 f8 b6 3d cc 48 60 bf
       0.21736214 -0.7463609 0.08934142 -0.8761108
000020 ef 9c ba bd fd 68 cc bd 2b 45 80 3d 17 cd e2 bf
       -0.09111964 -0.099809624 0.06263193 -1.7718838
000030 f8 13 af ba 56 b5 21 bd 68 76 6b c0 2a 0b 44 3f
       -0.0013357392 -0.039479576 -3.679102 0.76579535
000040 48 f4 65 c0 1b 07 4c 3e 9b c1 27 bf 4a e9 48 c0
       -3.5930347 0.19924586 -0.65529794 -3.1392388
000050 4b 1e 8e bf a1 c2 6c bd f6 b9 04 bc cc 3b ec 3f
       -1.1102995 -0.0578028 -0.008100977 1.8455749
000060 6c 8e 89 b9 36 3d a0 bf 56 2c 3e bf 01 89 96 be
       -0.0002623679 -1.251868 -0.742864 -0.294014
000070 3b 41 d6 bd cb 91 fe bf 64 2a ae bf a2 6a 16 3e
       -0.104616605 -1.9888242 -1.3606687 0.14689115

backbone.features.1.0.block.0.1.running_var f4 [32]
000000 ac 17 70 40 64 e4 4e 40 9a ce 71 40 87 35 5b 43
       3.7514448 3.2326899 3.778235 219.20909
000010 6b 78 30 3f d4 80 fd 3e a0 0f 8b 3e df f4 2f 43
       0.68933743 0.4951235 0.27160358 175.95653
000020 40 d8 f9 41 62 0d a9 3b ff 72 01 3e 5f 04 36 40
       31.23059 0.005159066 0.12641524 2.8440168
000030 6b bc bb 3c 59 52 de 3b f7 70 dc 3f 69 e3 69 40
       0.022916993 0.006784719 1.7221974 3.654505
000040 2b 50 5c 3f 77 05 d6 3b f3 7d 12 3f 39 59 84 41
       0.86059827 0.006531413 0.57223433 16.543566
000050 75 bc a5 41 c9 95 9a 3b 9d e0 5e 3c 0f f5 4f 40
       20.71702 0.004717563 0.013603357 3.2493322
000060 53 06 ea 3c f1 94 8f 3f 8b 2c 43 3f 7c 06 8c 3f
       0.028567469 1.1217328 0.7623984 1.0939479
000070 ff a7 cc 3d 75 c3 4b 43 99 20 01 3f a1 6e 36 3e
       0.0999298 203.7635 0.50440365 0.17815639

backbone.features.1.0.block.2.1.running_mean f4 [16]
000000 50 87 1a 40 75 d6 28 c0 20 f9 4e 41 1e 09 cb bd
       2.4145088 -2.6380894 12.935822 -0.09913848
000010 2a 3d 9f 3f 9b 6c f2 40 0a 7a 2d 41 02 0b db bf
       1.2440541 7.5757575 10.842295 -1.7112734
000020 76 ab 3e c0 1a bb 05 40 40 0c 31 c1 d6 a3 0b bf
       -2.9792151 2.0895448 -11.065491 -0.5454687
000030 d5 42 a0 c0 ea ca bb 40 4e c8 55 3f 41 f6 50 41
       -5.008158 5.86852 0.83508766 13.060121

backbone.features.1.0.block.2.1.running_var f4 [16]
000000 89 9e 0d 41 4a 4e f6 40 30 42 4f 40 e2 3e 62 40
       8.851205 7.697057 3.2384148 3.535088
000010 82 1c ad 40 06 a9 1f 40 f4 6e 91 40 b1 25 12 40
       5.40973 2.4946914 4.544794 2.2835505
000020 f2 05 45 40 51 3b ce 40 e6 a3 57 40 32 61 f6 3f
       3.0784879 6.444741 3.3693786 1.9248412
000030 54 a0 9e 3f 86 17 b2 40 d8 05 0e 40 b1 19 87 40
       1.2392678 5.5653715 2.2191067 4.221886

backbone.features.2.0.block.3.1.running_mean f4 [24]
000000 f7 c8 4d c1 17 7e a4 41 4d 21 f2 c0 0c 2e 99 c1
       -12.861564 20.561567 -7.566565 -19.147484
000010 27 7f 0f c0 6e 35 b0 41 9f e5 68 41 e8 8e af c0
       -2.2421358 22.026089 14.55606 -5.4861946
000020 2a 53 6a c1 30 55 d9 c0 77 7d 00 c1 c8 03 58 40
       -14.645304 -6.791649 -8.030631 3.3752308
000030 4d ed b9 c0 12 49 7f 41 d8 3b 45 bf a9 59 5f 40
       -5.8102174 15.955339 -0.7704444 3.4898474
000040 43 7c 31 41 30 b2 8f c0 f9 2d f2 c0 31 74 bb c1
       11.092837 -4.4905014 -7.568112 -23.431734
000050 2e 58 f3 bf 09 c3 23 c1 af 94 ed bf 96 dd 65 c1
       -1.9011285 -10.235116 -1.8561 -14.366598

backbone.features.2.0.block.3.1.running_var f4 [24]
000000 c9 1a 7e 42 2f 29 c7 42 37 b4 1b 43 bc 80 1d 43
       63.526157 99.58044 155.70396 157.50287
000010 8a c2 2a 42 a3 2f 23 42 0a 60 e7 42 7f b9 47 42
       42.68998 40.79652 115.68758 49.93115
000020 4f 34 0d 43 b0 40 93 42 b4 ab 0b 42 10 b1 a0 41
       141.20433 73.62634 34.91768 20.086456
000030 b8 00 fa 41 54 01 f8 42 e3 a2 3b 43 aa cf e8 42
       31.25035 124.002594 187.63628 116.405594
000040 f6 06 40 42 51 18 19 43 1c 71 68 42 c9 ec df 43
       48.006798 153.09499 58.11046 447.84988
000050 b5 f7 0b 43 9b 3c 5a 43 76 6b 8a 42 15 ec 87 43
       139.9676 218.23674 69.209885 271.8444

backbone.features.2.1.block.3.1.running_mean f4 [24]
000000 5b d3 76 bf dc 31 00 c0 12 80 b9 bd 61 da 73 bf
       -0.9641625 -2.0030432 -0.090576306 -0.95255095
000010 a9 1e 85 bf 07 c1 85 40 a9 60 ca 3f 82 28 30 c0
       -1.0399982 4.179813 1.5810748 -2.7524724
000020 54 fe bc bf ec f3 0a 40 8f 2a 59 3f de 18 34 c0
       -1.4765115 2.1711378 0.84830564 -2.8140178
000030 8a ad 9a bf 6e 0b 18 3f 47 39 4b bf 29 f8 03 3e
       -1.208421 0.5939244 -0.79384273 0.12887634
000040 b4 1f 82 3e d9 b4 a6 3d 9f 34 43 bf d6 bb 66 3e
       0.25414813 0.08139963 -0.7625217 0.22532591
000050 91 5e 76 40 2c 55 25 c0 9a 4f b6 bd 55 d8 c3 bf
       3.8495219 -2.5833235 -0.089019015 -1.5300394

backbone.features.2.1.block.3.1.running_var f4 [24]
000000 06 7c 79 40 ee 63 5f 40 a5 c0 ca 3f df 56 ac 40
       3.8981948 3.4904742 1.584004 5.3856044
000010 7f ef 5d 40 4c 27 95 40 b4 bf 76 40 34 75 3c 40
       3.4677427 4.661047 3.8554506 2.9446535
000020 22 34 43 40 34 77 41 40 7e 0e 14 40 83 f7 5e 40
       3.050057 3.0229006 2.3133845 3.483857
000030 b7 e0 35 40 d1 6e 4e 40 b2 05 81 40 9b b8 f6 3f
       2.8418405 3.2255137 4.031945 1.9275087
000040 e0 c1 0c 40 9a 3b 4b 40 7f 46 31 40 52 b0 59 40
       2.1993332 3.1755128 2.7699277 3.4013867
000050 89 17 a4 40 ed 9f 80 40 ef 3d 4b 40 d4 46 06 40
       5.127873 4.019522 3.1756551 2.098073

backbone.features.3.0.block.3.1.running_mean f4 [40]
000000 a5 1e ec bf ca 09 20 41 e9 28 a8 bf 58 28 09 c0
       -1.8446852 10.00239 -1.3137485 -2.1430874
000010 36 a4 36 40 e6 76 0c c0 07 ef 2b be af d9 a2 bf
       2.8537726 -2.194757 -0.167904 -1.2722682
000020 d0 ab 7f bf f7 05 9e 40 6c b4 f6 3f 59 c2 9b c0
       -0.9987154 4.938228 1.927381 -4.867474
000030 ba 0c 8d 40 e8 a8 aa 40 1b 5c b8 40 d6 af de 40
       4.4078035 5.3331184 5.7612433 6.9589643
000040 40 28 4a 40 fc fa 9a c0 1a 08 bd c0 23 16 d7 bf
       3.1587067 -4.8431377 -5.907239 -1.680363
000050 0b 19 07 c1 f2 5c 7f c0 f8 b1 68 c0 6e ab 28 40
       -8.443614 -3.990048 -3.6358624 2.6354632
000060 b3 b7 12 c0 26 a1 95 40 01 13 16 40 48 a7 87 bf
       -2.292462 4.6759214 2.34491 -1.0597925
000070 c9 5f 55 3f 4a 4c 62 c0 80 37 86 3f 74 01 eb c0
       0.8334928 -3.5359063 1.0485687 -7.3439274
000080 2a 8c 9f 3e 5f f5 41 3e 0c 87 26 c1 c7 8c 00 40
       0.31161624 0.18941258 -10.40797 2.0085924
000090 1d 4a 20 40 e0 cd 56 c0 c9 e4 7c 40 04 aa 2a 3f
       2.5045235 -3.3563156 3.951464 0.66665673

backbone.features.3.0.block.3.1.running_var f4 [40]
000000 59 dd 26 42 8c eb 51 40 5b f6 63 40 e3 d0 4e 40
       41.71616 3.2800016 3.5619113 3.2314994
000010 67 2b d6 40 f4 9d 37 40 b1 2c a0 40 da f3 4d 41
       6.692798 2.8690157 5.0054555 12.872034
000020 98 76 97 40 fa b4 7b 40 31 78 67 40 e0 38 b8 40
       4.733227 3.932921 3.616711 5.7569427
000030 be 73 9e 40 20 56 41 41 d8 d6 81 40 31 b8 96 41
       4.9516287 12.083527 4.057476 18.839937
000040 c7 50 20 41 4d 2e 8a 40 f4 ff d2 41 84 31 03 41
       10.019721 4.318152 26.374977 8.199589
000050 ab 04 ea 40 f8 ea 3a 41 d1 ab 90 41 cd 71 53 41
       7.31307 11.682365 18.083895 13.215283
000060 9f 11 9e 41 94 66 96 40 43 71 96 40 b5 4b b7 40
       19.758604 4.7000217 4.701326 5.7279916
000070 80 a9 44 40 a3 3c 9d 40 88 57 90 41 a3 e9 42 41
       3.0728455 4.913652 18.04274 12.18204
000080 07 0c 9e 40 6e 02 a0 40 28 3c a9 40 a9 94 68 40
       4.938968 5.0002966 5.2885933 3.6340735
000090 98 f5 e9 40 4d b0 1a 41 00 75 69 41 63 a9 f1 40
       7.3112297 9.668042 14.591064 7.551927

backbone.features.3.1.block.3.1.running_mean f4 [40]
000000 28 2c d9 be d6 b6 56 be e4 65 22 bf 6f ea 08 bf
       -0.424165 -0.20968184 -0.6343672 -0.5348272
000010 76 18 3b be c0 39 5a bf 43 79 ea 3d d6 2b 05 bf
       -0.1827105 -0.8524437 0.1144891 -0.52020013
000020 62 6d dc 3e c1 53 ee 3e b2 bf 7b 3f 65 1a ab be
       0.43052202 0.46548274 0.9833938 -0.33418575
000030 d9 f6 24 be 3c 44 05 3f 80 a9 9c be c0 95 5a 3d
       -0.1610979 0.5205724 -0.30598068 0.05336547
000040 0c 03 1e bf 47 52 15 3f 53 e5 33 3f 54 04 3d 3e
       -0.617234 0.5832867 0.70271796 0.18458682
000050 ce 7e 41 3d 58 15 77 be de ea b6 be 16 2f a0 3e
       0.04724007 -0.24129236 -0.35726064 0.31285924
000060 35 37 90 3e a2 06 87 be 50 bc 01 3d 33 cd ce 3d
       0.2816712 -0.26372248 0.03167373 0.100977324
000070 c3 b5 be bd 4c dd 5e bf 94 70 a8 be c8 f9 4c bf
       -0.09312012 -0.8705642 -0.3289839 -0.80068636
000080 24 b9 5d bd 15 ab 6c bd 15 7e 18 3f 02 c2 36 be
       -0.054131642 -0.057780344 0.59567386 -0.17847446
000090 fd 2a f5 3e 96 af 8b 3e a8 32 9e 3e c6 e2 15 3e
       0.4788436 0.272824 0.30898023 0.14637288

backbone.features.3.1.block.3.1.running_var f4 [40]
000000 c2 af 09 3f 84 f9 6a 3e 73 b8 03 3f cb 8d ab 3e
       0.5378381 0.22946745 0.5145332 0.33506617
000010 fd 0f 91 3e 7c 47 e9 3e 99 ef 49 3f 81 c2 c2 3e
       0.2833251 0.4556235 0.7888122 0.3803902
000020 dd 87 5e 3e ae c5 84 3f 85 ae ed 3e 7a ca 9c 3e
       0.21731515 1.0372827 0.4642221 0.30623227
000030 0f 2a c8 3e 1b a9 ee 3e c8 00 d5 3e 6d 80 ce 3e
       0.39094588 0.46613392 0.4160216 0.40332356
000040 81 ab 89 3e 93 0b dd 3e bc 57 ed 3e 09 19 91 3e
       0.2688866 0.43172893 0.46356 0.28339413
000050 83 c7 a9 3e e1 b8 c2 3e 6f 87 cb 3e d3 5b ca 3e
       0.33160028 0.38031676 0.39751765 0.3952318
000060 c5 cc 9d 3e d1 39 c7 3e 66 8b ee 3e f1 25 ab 3e
       0.3082029 0.38911298 0.46590728 0.33427384
000070 80 74 bc 3e 65 0f 99 3e 0d ed 90 3e ee 34 ca 3e
       0.36807632 0.29894558 0.28305855 0.39493507
000080 c2 ef b7 3e 9b 93 95 3e 18 67 ed 3e 69 0c 0c 3f
       0.35925108 0.29214177 0.46367717 0.54706436
000090 38 5d d0 3f 69 a9 99 3e ca 3e e2 3e 3e ab 85 3e
       1.6278448 0.30012062 0.4418853 0.2610721

val_5 f4 [32]
000000 00 00 00 00 00 00 00 00 00 00 00 00 00 00 00 00
       0.0 0.0 0.0 0.0
000010 00 00 00 00 00 00 00 00 00 00 00 00 00 00 00 00
       0.0 0.0 0.0 0.0
000020 00 00 00 00 00 00 00 00 00 00 00 00 00 00 00 00
       0.0 0.0 0.0 0.0
000030 00 00 00 00 00 00 00 00 00 00 00 00 00 00 00 00
       0.0 0.0 0.0 0.0
000040 00 00 00 00 00 00 00 00 00 00 00 00 00 00 00 00
       0.0 0.0 0.0 0.0
000050 00 00 00 00 00 00 00 00 00 00 00 00 00 00 00 00
       0.0 0.0 0.0 0.0
000060 00 00 00 00 00 00 00 00 00 00 00 00 00 00 00 00
       0.0 0.0 0.0 0.0
000070 00 00 00 00 00 00 00 00 00 00 00 00 00 00 00 00
       0.0 0.0 0.0 0.0

val_31 f4 [16]
000000 00 00 00 00 00 00 00 00 00 00 00 00 00 00 00 00
       0.0 0.0 0.0 0.0
000010 00 00 00 00 00 00 00 00 00 00 00 00 00 00 00 00
       0.0 0.0 0.0 0.0
000020 00 00 00 00 00 00 00 00 00 00 00 00 00 00 00 00
       0.0 0.0 0.0 0.0
000030 00 00 00 00 00 00 00 00 00 00 00 00 00 00 00 00
       0.0 0.0 0.0 0.0

val_63 f4 [24]
000000 00 00 00 00 00 00 00 00 00 00 00 00 00 00 00 00
       0.0 0.0 0.0 0.0
000010 00 00 00 00 00 00 00 00 00 00 00 00 00 00 00 00
       0.0 0.0 0.0 0.0
000020 00 00 00 00 00 00 00 00 00 00 00 00 00 00 00 00
       0.0 0.0 0.0 0.0
000030 00 00 00 00 00 00 00 00 00 00 00 00 00 00 00 00
       0.0 0.0 0.0 0.0
000040 00 00 00 00 00 00 00 00 00 00 00 00 00 00 00 00
       0.0 0.0 0.0 0.0
000050 00 00 00 00 00 00 00 00 00 00 00 00 00 00 00 00
       0.0 0.0 0.0 0.0

val_127 f4 [40]
000000 00 00 00 00 00 00 00 00 00 00 00 00 00 00 00 00
       0.0 0.0 0.0 0.0
000010 00 00 00 00 00 00 00 00 00 00 00 00 00 00 00 00
       0.0 0.0 0.0 0.0
000020 00 00 00 00 00 00 00 00 00 00 00 00 00 00 00 00
       0.0 0.0 0.0 0.0
000030 00 00 00 00 00 00 00 00 00 00 00 00 00 00 00 00
       0.0 0.0 0.0 0.0
000040 00 00 00 00 00 00 00 00 00 00 00 00 00 00 00 00
       0.0 0.0 0.0 0.0
000050 00 00 00 00 00 00 00 00 00 00 00 00 00 00 00 00
       0.0 0.0 0.0 0.0
000060 00 00 00 00 00 00 00 00 00 00 00 00 00 00 00 00
       0.0 0.0 0.0 0.0
000070 00 00 00 00 00 00 00 00 00 00 00 00 00 00 00 00
       0.0 0.0 0.0 0.0
000080 00 00 00 00 00 00 00 00 00 00 00 00 00 00 00 00
       0.0 0.0 0.0 0.0
000090 00 00 00 00 00 00 00 00 00 00 00 00 00 00 00 00
       0.0 0.0 0.0 0.0
