exports/eye_state_model.onnx (onnx, 981573 bytes, 50 tensors)

backbone.features.0.1.weight f4 [32]
00000000: 3bce f03f 9e74 d53f bcb0 3340 41e6 2c41
00000010: 6842 a83f 63b6 593f a971 e140 3d4c 7d40
00000020: 54d3 3d40 4101 0240 2f61 d940 0a17 dc3f
00000030: 3228 9f3e a3ab fbbe c011 b13f eec8 0740
00000040: 8fe4 8c3f 84ff f53e 2542 de3f b0a7 e440
00000050: 320f 2340 f547 3440 d6cf 0a40 6513 0140
00000060: c1fb 2440 76ed e43f c713 7b3f 60c6 8f3f
00000070: ce68 923f 7e0a 9040 bf70 e63e a51b 4e3f
1.8812937 1.6676214 2.807662 10.806214 1.3145266 0.85043925 7.0451245 3.9577782
2.9660234 2.0313265 6.793113 1.7194531 0.31085354 -0.49154386 1.3833542 2.1216388
1.100725 0.48046505 1.7363936 7.1454697 2.5478024 2.816892 2.1689353 2.0168087
2.5778658 1.7884967 0.9807705 1.1232414 1.1438234 4.501281 0.45007893 0.8051093

backbone.features.0.1.bias f4 [32]
00000000: a84d 1f40 5a33 1740 dee2 4940 6d40 c03f
00000010: 0ce4 2b40 8a77 d83f ec75 51c1 0a70 2941
00000020: f92b ff40 0e76 2dc0 66cf 36c1 481a 2140
00000030: 90cd 9cbd 5a99 1ec0 9199 2a40 622a e540
00000040: e948 8d40 4dad 4cbf fb94 913f 210c 8a40
00000050: 404e fc40 ca1c 8bc0 9e14 25c0 8014 1b40
00000060: 3827 73c0 91a7 d43f b286 cf3f 2848 1c40
00000070: 8eb6 b1ba 9459 2c41 f27a 8a3f 60cf 293e
2.4891148 2.3625093 3.1544719 1.5019661 2.6857939 1.691148 -13.0912895 10.589853
7.9741178 -2.7103305 -11.425634 2.517229 -0.076563954 -2.4781098 2.665623 7.1614237
4.41515 -0.79951936 1.137359 4.3139806 7.884552 -4.3472643 -2.5793834 2.4231262
-3.7992687 1.6613637 1.6212981 2.441904 -0.0013558434 10.77187 1.081877 0.16583014

backbone.features.1.0.block.0.1.weight f4 [32]
00000000: 7730 ee3f 51ca bc3f 7103 8340 bf66 be40
00000010: 6a78 0940 10d1 663f e2da 393f cdde 9540
00000020: ef1a d33f 316e 113f b715 4c3f dfc9 0dc0
00000030: 80b9 bd3f c258 8240 460f 9b3f 0f76 1a40
00000040: 6301 f73f be87 8a3f 8c60 ab3f 2385 cf40
00000050: 1e00 b63f 2011 0a3f b8f3 ca3f c34c f73f
00000060: a0aa 1840 0b91 9e3f 36a8 533f 657a a93f
00000070: 8111 3b3f 4b23 bf40 65d3 dc3f 3ce6 6840
1.860854 1.4749242 4.09417 5.9500422 2.1479745 0.90162754 0.72599614 4.6834474
1.6492594 0.56808764 0.79720634 -2.2154462 1.4822235 4.0733347 1.2114036 2.4134557
1.9297298 1.0822675 1.3388839 6.485002 1.4218786 0.5393238 1.5855627 1.9320301
2.3854141 1.2388014 0.82678545 1.3240477 0.73073584 5.973058 1.7252012 3.6390524

backbone.features.1.0.block.0.1.bias f4 [32]
00000000: 8902 d53f 45b0 1940 65b6 20c0 ad7d eabe
00000010: 7f3d 0c41 a81d 1641 2bb9 cabf 1af6 d43f
00000020: 72b6 f83f 4ebe d2be 57d8 c2bf f309 1a40
00000030: d531 d440 8819 f3bf 54bf 8040 d1aa 0f40
00000040: c956 d9bf d9dd cd40 b91c 0240 500a bebf
00000050: 5e64 1240 23d2 8f3c 1809 8d3d 39b0 f03f
00000060: aadc 563e 0dcb 1040 f25e 1a41 618b 2640
00000070: 2ba0 1d41 0e71 ff3f 7026 f73f 42e0 0e40
1.6641399 2.4013836 -2.5111325 -0.45799008 8.765014 9.38224 -1.5837759 1.6637604
1.9430678 -0.41160816 -1.5222272 2.4068573 6.631083 -1.8992167 4.0233555 2.2448008
-1.697961 6.433331 2.033003 -1.4846897 2.287376 0.017556256 0.068865 1.8803779
0.20982614 2.2623932 9.64818 2.602257 9.8516035 1.9956377 1.9308605 2.2324376

backbone.features.1.0.block.1.fc1.bias f4 [8]
00000000: e2db 9dbf ec30 14be 64f0 9fbf 1b23 8cbf
00000010: c8f5 debf 00f8 e9bf d7ec c6bf ca01 37bf
-1.2332728 -0.14471787 -1.2495236 -1.0948213 -1.7418756 -1.8278809 -1.5541028 -0.71487105

backbone.features.1.0.block.1.fc2.bias f4 [32]
00000000: 4159 ea3f a7e4 8240 9a34 0dbf aa38 f9bd
00000010: acad 5e40 9df7 8e3f 1534 4e3f d901 52bf
00000020: ff3e 3040 b710 923f eda1 e33e f620 08be
00000030: bc3d 253f 80e9 02bf 9e7e 2640 d787 283f
00000040: a9cc 023f d13a bf3e 7b6d 39bf 0c71 03c0
00000050: 47c3 d73f a449 6d3f 4f8b acbf fe23 2240
00000060: 1f7b c3bf 0d0b 6fbf 42c2 1c40 17ff 7740
00000070: 9a01 3abd 6aa7 99bf 6a43 8940 591c 06c0
1.8308488 4.0904117 -0.5515839 -0.12169011 3.47935 1.1169316 0.8054822 -0.8203407
2.753845 1.1411351 0.44459477 -0.13293824 0.64547324 -0.5113754 2.601478 0.65832275
0.51093537 0.3734956 -0.7243268 -2.0537748 1.6856469 0.9269049 -1.3480014 2.5334468
-1.5271949 -0.9337624 2.4493566 3.8749444 -0.045411684 -1.2004216 4.2894793 -2.0954802

backbone.features.1.0.block.2.1.weight f4 [16]
00000000: 693f cd40 c612 c440 87c1 c740 9fbb d140
00000010: 76c0 ac40 a984 cf40 043b b540 9b04 e640
00000020: f913 d440 3138 b440 eba4 e840 4cb3 c940
00000030: 0394 9e40 c494 d340 d523 d440 0d71 e940
6.4139905 6.1272917 6.242374 6.554153 5.398494 6.484944 5.663454 7.188062
6.627438 5.6318593 7.2701316 6.303137 4.955568 6.61191 6.629374 7.29505

backbone.features.1.0.block.2.1.bias f4 [16]
00000000: 63de 993a 9a9b 373b ff32 f4ba b91b f83a
00000010: e248 1d3c 6c70 053b c6da 3abb 32cd 45bb
00000020: 526a 95bb d29a 2abc 7707 6cbb 04fa 0dbc
00000030: 326b afbb 0edb debb d6f5 b5bb eb0c 25bb
0.001173925 0.002801633 -0.0018630921 0.001892916 0.009599896 0.0020361198 -0.0028511747 -0.003018212
-0.0045597935 -0.010412889 -0.0036015192 -0.008665565 -0.005353355 -0.0068010157 -0.0055529876 -0.0025184702

backbone.features.2.0.block.2.fc1.bias f4 [4]
00000000: 87f0 e13e 7159 f13f bf6c 15bd 30d4 1cbe
0.4412882 1.885542 -0.03648066 -0.15315318

backbone.features.2.0.block.3.1.weight f4 [24]
00000000: 04ad d140 d1b9 e540 d1b6 ae40 aa18 0641
00000010: 9706 e140 8f68 cc40 f4e7 0441 c930 c640
00000020: b316 0541 5f51 dd40 1be3 b240 1a83 5840
00000030: c2bd ae40 2d76 f940 02da 0741 fcca ad40
00000040: 4d4e c740 ffc2 0341 1672 d940 13f5 0f41
00000050: b150 f340 1cee 0c41 5534 cb40 c0fb b740
6.55237 7.1789327 5.4598165 8.3810215 7.0320544 6.3877635 8.306629 6.193455
8.318042 6.916183 5.590223 3.3830018 5.460664 7.7956758 8.490725 5.4310284
6.228308 8.235106 6.7951765 8.997333 7.6036 8.808132 6.350138 5.749481

backbone.features.2.0.block.3.1.bias f4 [24]
00000000: e5c5 a83b bcd6 6aba 1659 5bbb 2ab5 8abb
00000010: 08e9 5b3a 65e5 9b3a e27b 4b3b 9c9b a9ba
00000020: 2900 003b 7d9e 3dbb aa1f f5ba 24f8 373b
00000030: e2d4 92bb a29d f43a 5897 4bbb ff82 49bb
00000040: 4de2 853a 3548 b6b9 72cf 1e3b a15d c0ba
00000050: 189b ed3a d45f 23bb 9fa5 3aba ca68 83ba
0.005150544 -0.00089583895 -0.0033469847 -0.004233022 0.00083889114 0.0011893926 0.0031049182 -0.0012940052
0.0019531345 -0.0028933578 -0.0018701453 0.0028071487 -0.004480944 0.0018662701 -0.003106555 -0.0030748246
0.0010214538 -0.00034767544 0.0024232534 -0.0014676341 0.0018127887 -0.0024928944 -0.00071200164 -0.0010025736

backbone.features.2.1.block.2.fc1.bias f4 [6]
00000000: 7e61 d0be 979b 3dbf 9e69 1540 8625 bf3f
00000010: c6ae 2640 636a 9f3f
-0.4069938 -0.74065536 2.3345714 1.4933326 2.6044173 1.2454342

backbone.features.2.1.block.3.1.weight f4 [24]
00000000: 44e7 b440 53eb 8a40 7df5 7b3f 3dd4 9c40
00000010: f075 ad40 e447 eb40 a7ec 9b40 4f59 a740
00000020: e897 8440 09fd b540 81b8 7940 d6cc 0341
00000030: ca95 a240 0e70 9840 74f8 a540 bedc 7a3f
00000040: 542b 1740 f7fa 6d40 f62e a340 972d 25c0
00000050: e638 aa40 c35b 8b40 9b48 a740 2f5f 733f
5.6532307 4.341226 0.9842146 4.900908 5.4206467 7.3525257 4.872638 5.229652
4.1435432 5.687138 3.9018862 8.237509 5.080785 4.7636786 5.1865788 0.97993076
2.3620195 3.7184427 5.0994825 -2.5809076 5.3194456 4.3549514 5.227613 0.95067114

backbone.features.2.1.block.3.1.bias f4 [24]
00000000: 1af5 7b40 94c0 5440 4cd0 5739 b3d4 2cc0
00000010: 59e6 e9bf ba68 a5c0 5124 12c0 808d 1cbf
00000020: 3202 aebf c80f b9bf ab85 0140 a48b 823f
00000030: 2413 3440 2d3b 06c0 c9ee 1540 2ec0 a83d
00000040: ddd6 9640 0aad e9bf 5cd4 e93f e6cf 56bf
00000050: dba8 75c0 2859 d7bf e664 88bf d41b 73be
3.9368348 3.324254 0.00020581594 -2.7004821 -1.8273422 -5.169034 -2.2834666 -0.6115341
-1.359442 -1.4457941 2.0237834 1.0198865 2.8136683 -2.0973618 2.3426993 0.0823978
4.7137284 -1.8255932 1.8267932 -0.8391098 -3.8384311 -1.6824083 -1.0655792 -0.23741084

backbone.features.3.0.block.2.fc1.bias f4 [6]
00000000: 48b4 c73f 25d9 2f3f e7ee 923e d514 603e
00000010: e010 693f 6487 8d3f
1.5601892 0.6869071 0.28697893 0.21882947 0.91041374 1.1056943

backbone.features.3.0.block.3.1.weight f4 [40]
00000000: 51dc 1f41 4a3b a140 45f5 a540 d5b1 b940
00000010: 5ac3 b640 5159 b240 4867 c240 1875 d540
00000020: 1325 b040 18f5 f840 81fd b740 8da4 b140
00000030: ac8e a740 089e dc40 f18d b440 9f01 f540
00000040: 0075 c640 391f b340 6932 e840 83dc c240
00000050: 1702 b240 82d6 e240 70a2 fc40 08ce d740
00000060: dbb0 f440 ca15 ab40 a17d ac40 cba3 c440
00000070: 04f1 a840 e1f1 ac40 bb1e e340 13a1 c840
00000080: e173 b940 86bf b040 b70f bd40 a806 b440
00000090: 90de 0141 105d ce40 7394 f640 088b c340
9.991288 5.0384874 5.18619 5.802958 5.7113466 5.573403 6.0751076 6.6705437
5.5045257 7.7799187 5.7496953 5.551337 5.236166 6.894291 5.642327 7.656448
6.201782 5.5975614 7.2561536 6.089418 5.562755 7.088685 7.894829 6.7439003
7.646589 5.34641 5.3903356 6.1449943 5.279421 5.404526 7.0975013 6.2696624
5.7953954 5.5233793 5.9081683 5.6258125 8.116837 6.44886 7.7056212 6.1107216

backbone.features.3.0.block.3.1.bias f4 [40]
00000000: a337 2fba 1a15 5aba 65cc 62ba 81f0 03ba
00000010: 8e50 af39 38c0 09ba eff9 6a3a 2a47 d2ba
00000020: 5eb3 0bba d82c 843a 2a83 86ba d53f e338
00000030: 5019 e5ba fb16 dcba 70d2 a4b9 803e f43a
00000040: fa74 dbba b41b a6b8 af6e f0b9 5a76 e4ba
00000050: 5d0e 693a 4ece b939 9048 7739 f33c d23a
00000060: a77c 8f3a 956f 003a 28b3 893a 0431 1f3b
00000070: 5f8c 933a 2b90 29b9 4158 98ba 4a92 2ebb
00000080: 2521 04bb 1b24 92b9 f38a 1339 99a1 24ba
00000090: 9992 0abb a4c5 db3a 38f8 003b c4cb 33b9
-0.0006684011 -0.00083191844 -0.0008651673 -0.00050330913 0.0003343862 -0.0005254778 0.00089636346 -0.0016042937
-0.0005329157 0.0010084165 -0.0010262479 0.00010836093 -0.0017478857 -0.0016791517 -0.00031437306 0.0018634349
-0.0016743236 -7.920657e-05 -0.00045858833 -0.0017430291 0.0008890385 0.0003543966 0.00023582787 0.0016039893
0.0010947183 0.00048994395 0.0010505663 0.002429069 0.0011257044 -0.00016170803 -0.0011622981 -0.0026637488
-0.0020161357 -0.0002787419 0.00014070775 -0.00062801834 -0.0021144508 0.0016767276 0.00196792 -0.00017146679

backbone.features.3.1.block.2.fc1.bias f4 [10]
00000000: d977 873f e600 813f 47e8 1e40 b690 94bd
00000010: d6c8 d63f 0f83 b43f 75d7 773f da95 873f
00000020: c6c4 903f 71fd 873f
1.058345 1.0078399 2.482927 -0.07254164 1.678004 1.4102496 0.96813136 1.0592606
1.131005 1.0624219

backbone.features.3.1.block.3.1.weight f4 [40]
00000000: 86b2 9b3f 8991 f63f edb3 5440 e531 2f40
00000010: 0c13 ef3f 1c50 8740 70e0 cd40 c6da 1140
00000020: aef1 d63f 4ec5 d640 0bc3 9040 3a46 fc3f
00000030: 839a 4140 0646 f03f a248 5640 3fdf ce3f
00000040: 5346 ce3f b6d4 3840 3344 fb3f 2f3c d23f
00000050: 4301 e13f e340 0340 a5e3 e13f e417 0740
00000060: fc00 c23f 73e6 3440 4090 4940 033b 1940
00000070: fdd1 4b40 e6af e33f 4cd2 d23f be06 0640
00000080: 5e09 2140 2708 0040 12e1 2b40 ec92 8840
00000090: 8fcc b940 4ecc d43f b69b e53f c7ed 0140
1.2163856 1.9263164 3.3234818 2.7374203 1.8677688 4.228529 6.433647 2.2789779
1.6792505 6.711585 4.523809 1.9708931 3.0250556 1.877137 3.3481832 1.6161879
1.6115211 2.8879828 1.9630188 1.6424617 1.757851 2.0508354 1.7647597 2.1108332
1.515655 2.8265655 3.1494293 2.3942268 3.1846917 1.7788055 1.6470428 2.0941615
2.5161967 2.0004976 2.6856122 4.267935 5.8062205 1.6624849 1.7938144 2.0301378

backbone.features.3.1.block.3.1.bias f4 [40]
00000000: 4463 f33f 6ca1 5ebf dd60 25c0 3a76 eebf
00000010: f0d3 ecbf 333c 9ebe b156 6cc0 1d3c e1bf
00000020: 45fa 79bf cf6c 2b40 23c7 ac3e b943 9dbc
00000030: 573a 833f f912 78bf a7ce 54bf 2fea 27bd
00000040: 7ff8 fabf e3f8 7d3f 412f bc3f bc51 92bf
00000050: 6908 513f f933 44bf 4a39 bdbe 7e0a 3440
00000060: 5314 05bc 3e54 483e dd96 53bf 441d 923f
00000070: f08b 43be ed62 923f e730 62bf 79ae 72bf
00000080: e279 cdbf 23e4 08bf d6ac 20bf eef8 c5bd
00000090: 0b34 2a3f e6f9 8f3f 9485 923d 16d9 22bd
1.9014668 -0.8696506 -2.584037 -1.862983 -1.8502178 -0.30905303 -3.6927912 -1.759647
-0.97647506 2.6785161 0.3374568 -0.019197332 1.0252179 -0.9690395 -0.83127826 -0.04099482
-1.9607085 0.99207896 1.4701921 -1.1431193 0.8165346 -0.76641804 -0.3695777 2.8131404
-0.008122521 0.19563386 -0.82652074 1.1415181 -0.1909635 1.143644 -0.8835587 -0.94797474
-1.6052821 -0.5347311 -0.62763727 -0.0966662 0.6648566 1.1248138 0.07154384 -0.03975781

backbone.features.4.0.block.2.fc1.bias f4 [10]
00000000: 8232 8cbe 9d16 b5be 423b 6ebe 59ae d8be
00000010: ebe4 3e3e 12d3 af3e 22e0 54be d684 a73e
00000020: 61d8 4b3e 6fa0 19bd
-0.27382284 -0.35368815 -0.23264793 -0.42320517 0.18642013 0.3434072 -0.20788625 0.32718533
0.19906761 -0.037506517

backbone.features.4.1.block.2.fc1.bias f4 [20]
00000000: 64a2 5a3f 0386 e33f 2baa 533f cdbb d23e
00000010: 6411 ff3f e214 6a3f 4a6d ccbd 346f 0a3f
00000020: 71da 253f 00d5 213f edb7 873f 0f80 90be
00000030: 76f9 ac3f 66b2 c43f 6d24 333f 0e16 b83f
00000040: 6a3a df3f e746 9f3f a6fd 2b3f 18ea 853f
0.8540404 1.7775272 0.8268153 0.41158906 1.9927182 0.91438115 -0.09981783 0.5407593
0.6478644 0.6321564 1.0603005 -0.282227 1.351363 1.5366943 0.69977456 1.438173
1.7439702 1.2443513 0.6718391 1.0462065

backbone.features.4.2.block.2.fc1.bias f4 [20]
00000000: 5fd3 0040 3f31 933f 3e6c fe3e 3918 9e3f
00000010: b994 0d3d 6cf5 463f 77ae 633f 3bc2 8c3f
00000020: cf2a 3c3f 1d7c c33e 77ca 823f 73d1 af3f
00000030: 6b87 be3f 7107 873f 2748 593f a7d2 123f
00000040: 7662 5e3f f77b 5a3f 2530 393f 08ec f33e
2.012901 1.1499404 0.49691957 1.2351142 0.03456566 0.77718234 0.8893809 1.0996774
0.7350282 0.38180628 1.0218037 1.3735794 1.4885076 1.0549146 0.8487572 0.5735268
0.8686899 0.85345405 0.7233909 0.47641015

backbone.features.5.0.block.2.fc1.bias f4 [20]
00000000: 97e2 463f d72c 073f f10e ef3f 727c 963f
00000010: 640f bd3f 2081 483f 36a4 c53f 81ea 303f
00000020: c2e4 b13f 1955 fe3d ab12 e43f fd87 78be
00000030: 8af5 8cbf c142 653f 782b 0340 6c4c db3f
00000040: 5ba2 303f 4eea 5c3f 43be 913f 0dc8 b73f
0.776895 0.52802795 1.8676435 1.1756728 1.4770322 0.7832203 1.5440738 0.69107825
1.3897936 0.12418575 1.7818197 -0.24270625 -1.1012433 0.89554983 2.0495281 1.7132697
0.68997735 0.8629502 1.1386188 1.4357926

backbone.features.5.1.block.2.fc1.bias f4 [28]
00000000: de41 483f 60ab 2d3f 0478 823f 7f18 963f
00000010: 48f8 cb3f da23 883f 6a82 823f f164 733f
00000020: e250 863e 5cf7 983f 0706 683e c2bf 1b3f
00000030: f905 563f 03bd 483f a75a 9a3f c4b0 023f
00000040: 8b08 ff3e c1c7 bf3f 1eae 573f d58d 8f3f
00000050: b33e 2f3f eaf5 9f3f dc8c a03f 82bc 8e3e
00000060: 5004 723f 8b50 963f 12e4 293f 1e84 9b3f
0.78225505 0.6783962 1.0192876 1.1726226 1.5935144 1.0635941 1.0196049 0.950759
0.26233584 1.1950488 0.22658549 0.60839474 0.83602864 0.7841341 1.2058915 0.5105097
0.49811205 1.4982835 0.84250057 1.1215159 0.68455046 1.2496922 1.2542987 0.27878195
0.9453783 1.174333 0.6636363 1.2149694

backbone.features.5.2.block.2.fc1.bias f4 [28]
00000000: dbce 163f f99f 643f 6103 f33e 1df9 433f
00000010: 0e26 073f 2422 083f 859f 4e3f 8f9a e23e
00000020: 6514 d93e 3915 503f 0202 3a3f 4cad 643f
00000030: 2f23 cc3e 90c0 293f b84d 613f e22e 143f
00000040: 6edb 493f d75a f83e 7e3e 823f 24a0 333f
00000050: e7fe cb3f 1592 433f 6949 9a3f df48 ec3e
00000060: 117a 6e3e 12cc 993f 17f6 303f e551 903e
0.58909386 0.893066 0.47463515 0.7655199 0.5279244 0.53177094 0.8071216 0.44258544
0.42398372 0.81282383 0.72659314 0.8932693 0.39870593 0.6630945 0.88009214 0.5788404
0.7885045 0.48506805 1.0175321 0.7016623 1.5937165 0.7639478 1.2053653 0.46149346
0.23288752 1.2015402 0.69125503 0.2818748

backbone.features.6.0.block.2.fc1.bias f4 [28]
00000000: 9008 233f 3e78 cb3f 9fd9 cf3e 13b9 1040
00000010: 811c 483f df69 733f 2dba 273f fae4 103e
00000020: e8ed a43f 9b23 423f b41e 983f 8abc 263f
00000030: e8e4 0e40 76d1 ef3f 24ab fe3f ea97 f8bc
00000040: 5206 9c3f 5c6e bf3e 3280 343f 5c10 fa3d
00000050: 09a8 653e 0605 3e3f d164 393f 3274 0040
00000060: 4e18 433d 93ae a4be 98db 083f 5d9c d7bf
0.6368494 1.589607 0.4059572 2.261296 0.78168494 0.9508342 0.65518457 0.14149848
1.2885103 0.7583558 1.188437 0.6513144 2.2327213 1.8735797 1.9895978 -0.030345876
1.2189429 0.37388885 0.7050811 0.122101516 0.22427382 0.74226415 0.7241946 2.007092
0.0476306 -0.3216444 0.53460073 -1.6844593

backbone.features.6.1.block.2.fc1.bias f4 [48]
00000000: 8ea3 073f 77a9 8b3e 3d62 7abc 7072 ae3d
00000010: b0ab f23d 0c7f 48be 3367 9ebd fd51 bebd
00000020: e8db 263f f8cc 11bf 991b 9c3c 896f b2be
00000030: 762f 4e3f b115 f4be e074 cf3d 6fbd babd
00000040: c090 353f 8770 1f3e 0c68 9c3e 144a 3a3e
00000050: 5f83 c73d 2286 0e3f 9411 f4bd b7e1 3dbd
00000060: b4b4 fe3e 9929 0d3f 3ff9 29be 25fb 053c
00000070: a54d 873f 2b2c 763d 18d1 023e 5a4f e53e
00000080: 8ea7 193f ad1b 643e 09cc 2b3f 08fb c43e
00000090: 60c3 633e 4fe0 67bd bd64 223e a39c fe3e
000000a0: f48c 8b3f 32ed 793e bdf9 343e 615a 5ebe
000000b0: e13e 8d3c 7a9d fd3e ee0a bcbe 35e0 063f
0.5298394 0.2727773 -0.015282211 0.08517921 0.11849153 -0.19579715 -0.077345274 -0.09292982
0.651793 -0.5695338 0.019056128 -0.3485072 0.8054117 -0.476728 0.10129714 -0.09118163
0.70923996 0.1557027 0.3054813 0.18192321 0.09741854 0.5567342 -0.11917415 -0.046357837
0.4974724 0.551416 -0.16598986 0.008177553 1.057057 0.060100716 0.12775075 0.44787103
0.60021293 0.22276182 0.6710821 0.38472772 0.22242498 -0.0566104 0.15858741 0.4972888
1.090239 0.24406889 0.17673393 -0.21714164 0.017241897 0.49534208 -0.3672709 0.5268586

backbone.features.6.2.block.2.fc1.bias f4 [48]
00000000: 2913 35bf a907 df3f fe8c e73e e779 413e
00000010: 7d7a 6fbe 8574 113e 5b7e 003f 7fb1 cb3c
00000020: d5a1 173e d1b0 ba3e b93a e03e 061a b73e
00000030: eca1 6d3f 5d79 f6be 5157 643e ecd8 4a3f
00000040: c2ac 6a3f ef18 d4be f0a0 253f 29b9 abbc
00000050: 40ed db3e 51ad b93e d681 343e 4a07 703f
00000060: e247 773e d508 dfbd 1033 a43e 7a1f 5c3f
00000070: 0f65 113f 73de fbbe e6b1 4b3f 40cf aa3e
00000080: 21e1 093f b7f0 2e3f 80c8 e13e 47aa 733e
00000090: 7981 153e f640 9d3e 195c 133f 0d33 3fbe
000000a0: c909 333f eb72 5dbd 9efb 813f b769 a13e
000000b0: adb9 f23e d272 77be b2dd 673e 74ba 4f3f
-0.7073236 1.7424213 0.45224756 0.18894158 -0.2338657 0.14204605 0.50192803 0.02486491
0.14807828 0.36463025 0.43794802 0.35762042 0.928252 -0.48139468 0.22298934 0.79237247
0.9166986 -0.41425273 0.64698696 -0.020962315 0.42954445 0.36265042 0.17627653 0.9376112
0.24148515 -0.108903565 0.32070208 0.8598553 0.5679483 -0.49193153 0.79568326 0.33361244
0.53859144 0.6833605 0.44098282 0.23795424 0.14600171 0.30713624 0.57562405 -0.18671818
0.69936806 -0.054064672 1.0154912 0.31525967 0.47407284 -0.24164894 0.22643164 0.8114388

backbone.features.6.3.block.2.fc1.bias f4 [48]
00000000: f72f f03f 4140 7d3d b3bf 193e 0a99 dbbd
00000010: cce3 e839 8ea1 8dbe 411e 4d3f f07b 6b3e
00000020: 80e9 ab3f f11e dc3e ad3a afbe f495 c5bc
00000030: c0d3 cb3f 24d3 f1be d320 aa3c 1576 0c40
00000040: 83ec 743e 7f65 4f3e 6705 663f 03ca 913f
00000050: 5a06 40bd 93c1 853e d48f cd3f 2779 ba3d
00000060: 2d98 023f 4bdd 993f ef5b 3b3d 32b0 e3be
00000070: b6cd 2abe 1d7e 113e ed5a 723e a0b6 0b3f
00000080: 1967 5b3e 9098 063f fb58 c73d 4b97 4f3e
00000090: 5e5c c43f caf5 9a3e 158c 4a3e 48eb 14be
000000a0: 9a6b 293f 43f1 983e 356c 253e 74e7 0bbd
000000b0: 04c6 733e 452e 3a3e fc73 18bd c0c2 1abe
1.8764638 0.061828855 0.15014534 -0.10722549 0.0004442021 -0.2766232 0.8012429 0.22996497
1.3430634 0.42992356 -0.34224454 -0.024119355 1.5923996 -0.472314 0.020767605 2.1947072
0.23918347 0.20253561 0.89851993 1.1389774 -0.046881057 0.26124248 1.6059518 0.09105139
0.5101345 1.2020658 0.04574197 -0.44470364 -0.16680035 0.14208265 0.23667498 0.5457554
0.21426047 0.5257654 0.097337686 0.20272557 1.5340688 0.30265647 0.1978 -0.14542878
0.6617981 0.29871568 0.16154559 -0.034156278 0.23806006 0.18181713 -0.037219986 -0.15113354

backbone.features.7.0.block.2.fc1.bias f4 [48]
00000000: b9b4 b3be 1f61 99bf 178e 58bf fd16 46bf
00000010: fe51 84bf b090 d7bf db20 27bf f998 8ebf
00000020: 6fbb 0bc0 073c a0bf d227 88bf 56ce b7be
00000030: e767 58bf df8b 33bf 0727 2abf 2e64 3bbf
00000040: fcbf 25bd 822e 2540 2cc9 c0bf 4507 26bf
00000050: 7bc7 e4be 59be 58bd 0932 8abf 6110 45bf
00000060: ae13 aabe 5851 6ebf cb37 10c0 fac9 7bbf
00000070: 3413 3abf 81e1 cabe 6c87 69bf 0599 d1be
00000080: abfb 88be c46b 07c0 26e8 b9bf c3ce 8dbf
00000090: a38c 9ebf 7cb8 33bf 6f0e 7ebf e602 47bf
000000a0: c2e1 ddbe 8f0a ffbe d601 433f 0752 ebbd
000000b0: 0907 9abf 4805 ebbe 0d4c cfbf b682 70bf
-0.35098818 -1.1982764 -0.8459181 -0.7737883 -1.0337522 -1.684103 -0.6528451 -1.1140434
-2.183315 -1.2518319 -1.0637152 -0.3589961 -0.8453354 -0.701353 -0.664658 -0.7319974
-0.040466294 2.5809636 -1.5061393 -0.6485484 -0.44683442 -0.052915905 -1.079652 -0.7697812
-0.3321814 -0.9309287 -2.2534053 -0.98355067 -0.7268555 -0.3962517 -0.9122226 -0.40937057
-0.26754507 -2.1159525 -1.4523971 -1.1078724 -1.2386669 -0.70203376 -0.99240774 -0.777388
-0.43336302 -0.49812743 0.76174676 -0.11490255 -1.2033397 -0.45902467 -1.6195084 -0.9394945

backbone.classifier.1.bias f4 [2]
00000000: 3d31 3c3c 04cc 033d
0.011486349 0.032176986

backbone.features.0.1.running_mean f4 [32]
00000000: 4867 183e 78ba 823e ea6c 7d3d 0147 333e
00000010: 9365 313d 9b10 60bf 9a8b a8bf 3c70 9c3f
00000020: 1333 973f 1880 b23f 2769 fabe 53b6 d53c
00000030: ca34 a3bf 9729 1bbf 6268 86be 7c94 a3bd
00000040: e6b2 9cbe e673 813f 76c1 24bd 483c 8d3f
00000050: fff6 903f 5769 143f c00f b43e d9b4 983d
00000060: fd95 ccbe c3ae e4bf dca3 623f b1c5 9fbd
00000070: 725f 94bf e970 a0bf 0e86 de3c 1350 d83f
0.14883149 0.2553289 0.061871447 0.17507555 0.04330976 -0.8752534 -1.3167603 1.2221751
1.1812462 1.3945341 -0.4890835 0.026087916 -1.2750485 -0.60610336 -0.26251513 -0.079873055
-0.3060524 1.0113494 -0.04022356 1.1034021 1.1325377 0.57973236 0.35168266 0.07456369
-0.39958182 -1.7865833 0.8853128 -0.078013785 -1.1591628 -1.2534457 0.027163532 1.6899437

backbone.features.0.1.running_var f4 [32]
00000000: d98a 2140 3367 c340 d771 ad3e a729 4f41
00000010: 7080 cc3e 98e5 513f 0d54 1341 19fa 7041
00000020: f10d 5a41 f7b1 3541 aeb2 2242 2093 b43f
00000030: c0f7 5b41 34d6 8d40 c9fd 3c40 1187 053f
00000040: 1e0a 9f3f 782c 1a41 6654 6e3f 1742 3940
00000050: afa5 6341 ec93 ec40 dfd2 d03f 2a58 a03f
00000060: e791 c23f 9859 4140 329d 593f e3c4 c93e
00000070: 04e5 5e40 177c 6f41 efb7 a940 95ea ae40
2.5240996 6.1063476 0.33875915 12.947669 0.3994174 0.8199096 9.20802 15.061059
13.628404 11.355948 40.67449 1.4107399 13.747986 4.432398 2.9529898 0.5215922
1.2424963 9.635857 0.9309753 2.8946588 14.22795 7.393057 1.6314353 1.2526906
1.5200776 3.0210934 0.85005486 0.39408025 3.482728 14.967795 5.303703 5.4661355

backbone.features.1.0.block.0.1.running_mean f4 [32]
00000000: 84ad cd3f f87f 2340 3f16 673e 60d0 dac0
00000010: 9464 44be b368 4dbf 42eb ff3d 4aa4 98bf
00000020: 3a62 8cbf 8663 bdbd a5c0 2b3d a711 07c0
00000030: fbe4 813c 4fc3 9fbd 9fa2 66c0 7007 093f
00000040: 2789 8bc0 adc6 693e 678d 42bf 292c 17bf
00000050: e79e 133f 1c84 7abd 51cd e2bc f830 9a3f
00000060: ba7d d13b 8e96 9bbf d8bc 3fbf 3d1c 06be
00000070: 3b88 30be 3ec0 cc3e 9be2 a6bf 7069 8f3d
1.6068578 2.5546856 0.2256708 -6.8379364 -0.19178993 -0.80237883 0.12496044 -1.1925137
-1.0967476 -0.09247498 0.041931767 -2.1104524 0.015856257 -0.07800924 -3.6036756 0.53526974
-4.360492 0.22829695 -0.7599701 -0.5905176 0.5766434 -0.061161146 -0.027685793 1.2046194
0.0063931616 -1.2155321 -0.7489753 -0.1309671 -0.17239468 0.3999042 -1.3037905 0.070025325

backbone.features.1.0.block.0.1.running_var f4 [32]
00000000: 3b0e 4340 676f 1640 586a 6440 983b 6443
00000010: 4d90 fb3e f573 f53e bb07 103f 23bc 5343
00000020: 583d f041 fa02 e53b 06a9 af3d 346e 3140
00000030: 8028 1c3d d831 043c e6be cf3f 02ee 3e40
00000040: e3b5 923f b67b 0f3c 575a 6e3f e761 f83f
00000050: e644 af41 5d07 2d3c 7d85 f93c f80f 2a40
00000060: 11da ff3d 0cd6 bd3f 03e0 023f f19c 263f
00000070: 9272 723e e2e0 4c43 d618 d83e 54c6 bd3d
3.0477436 2.3505495 3.5689907 228.23279 0.4913353 0.4794003 0.56261796 211.73491
30.029953 0.00698888 0.085771605 2.7723513 0.03812456 0.008068524 1.6230133 2.9832768
1.1461757 0.008757522 0.931066 1.9404877 21.908642 0.010560838 0.03045916 2.6572247
0.12492765 1.4830947 0.51123065 0.65083224 0.23676518 204.87845 0.42206448 0.09266344

backbone.features.1.0.block.2.1.running_mean f4 [16]
00000000: 612c 4340 3fec 20c0 8f5f 4b41 44c0 03be
00000010: caae 803f f81b da40 b2df 1e41 c50b c5bf
00000020: ee4e 4ac0 2d96 1840 da90 35c1 b420 8ebf
00000030: cdfe 91c0 7218 c440 6d49 913f eaa3 4341
3.0495837 -2.5144193 12.71083 -0.12866312 1.0053341 6.815914 9.929613 -1.5394217
-3.1610675 2.384166 -11.347864 -1.110373 -4.5623536 6.127984 1.1350533 12.227518

backbone.features.1.0.block.2.1.running_var f4 [16]
00000000: d87e 0b41 17e4 ca40 2b61 3f40 560c 6340
00000010: 4df8 c140 5f99 2640 74c4 4b40 0e67 1940
00000020: e5c4 3140 c0cb f740 ec46 7440 8429 f23f
00000030: 1162 933f 8bef d140 efe0 0640 f823 5f40
8.718468 6.340343 2.9903057 3.547628 6.06156 2.603111 3.1838655 2.396915
2.7776425 7.743622 3.8168287 1.891892 1.1514302 6.560491 2.1074789 3.4865704

backbone.features.2.0.block.3.1.running_mean f4 [24]
00000000: 0497 54c1 5179 a541 2f61 dec0 d04f 98c1
00000010: c2d7 8dbe c41b b941 fa68 6f41 5065 abc0
00000020: b81b 62c1 7497 e2c0 b2be 03c1 2945 8c40
00000030: adee c7c0 f2fd 6941 e594 cebe 0415 4840
00000040: 8579 2241 ca25 8bc0 911d f6c0 8595 a6c1
00000050: 669d 4ac0 c824 33c1 ff49 61c0 3a09 6cc1
-13.286869 20.684237 -6.949363 -19.03897 -0.27703673 23.138557 14.963129 -5.3561172
-14.131767 -7.080988 -8.234056 4.3834424 -6.247885 14.624498 -0.40347973 3.1262827
10.154668 -4.348363 -7.691109 -20.823008 -3.1658568 -11.19648 -3.5201414 -14.752253

backbone.features.2.0.block.3.1.running_var f4 [24]
00000000: b940 4c42 0974 ab42 883a 3543 daa7 0a43
00000010: 996d 0342 6b97 3b42 1d6a b842 e36e 1f42
00000020: 066c 0043 4806 8342 b79d ef41 0dc7 7f41
00000030: ebae e741 cb3b d642 d560 1943 f69f d642
00000040: 1c3f 1f42 a4ea fe42 b11d 4142 a0b2 a043
00000050: cd00 c742 d135 2343 6caa 6542 dca9 3043
51.063206 85.72663 181.22864 138.65567 32.85703 46.89787 92.20725 39.858288
128.42197 65.51227 29.95201 15.986096 28.96041 107.11678 153.37825 107.31242
39.81163 127.45828 48.278996 321.3955 99.501564 163.21022 57.416428 176.66351

backbone.features.2.1.block.3.1.running_mean f4 [24]
00000000: 128d 61bf 74bf efbf 75c5 93bd 3b4c 61bf
00000010: ba37 49bf 5f38 8640 37d3 ec3f 02aa 2ac0
00000020: da5e 71bf a467 2840 86d7 453f 32d6 40c0
00000030: 6ce8 a2bf e8ff 3b3f 0f02 57bf 4f9b 84bd
00000040: fa5f 4b3e a68b 523e 7705 9cbf 221d 043f
00000050: 78a6 4d40 7857 debf 516f 94be ee2c cebf
-0.8810588 -1.8730302 -0.07215396 -0.88006943 -0.78600657 4.194381 1.8501958 -2.6666265
-0.94285357 2.6313257 0.7728199 -3.0130734 -1.272718 0.73437357 -0.83987516 -0.06474935
0.19860831 0.20561084 -1.2189168 0.51606953 3.2132854 -1.7370443 -0.28991178 -1.6107461

backbone.features.2.1.block.3.1.running_var f4 [24]
00000000: 155b a040 c146 8040 743f 1c40 9b51 a140
00000010: 8660 8d40 39d7 b240 2478 8340 ceed 8440
00000020: aae2 7140 2c04 8940 ca91 5840 a022 8d40
00000030: d4ef 8340 f647 9140 40ac ae40 0d88 1d40
00000040: 74c2 2340 ba94 6b40 5cf8 7940 e2ca 4240
00000050: d91a df40 810a a640 d694 8040 1373 3340
5.0111184 4.008637 2.4413729 5.0412116 4.4180326 5.5887723 4.1084156 4.154029
3.7794595 4.2817593 3.3838983 4.4104767 4.123026 4.5400343 5.4585266 2.4614289
2.5587435 3.6809525 3.9057837 3.043633 6.9720273 5.188782 4.0181684 2.8038986

backbone.features.3.0.block.3.1.running_mean f4 [40]
00000000: d8b5 0ec0 ff90 1f41 b3e6 a8bf a9be e6bf
00000010: 6862 5f40 7605 17c0 4c9c 0e3f 3a2c 29c0
00000020: b1a4 27bf bf56 9f40 863c b63f b775 a5c0
00000030: 27f3 8e40 13fe 8640 aa2f d540 d6af f240
00000040: b689 5e40 00df c0c0 0cd2 99c0 7e44 0cc0
00000050: 49ee e2c0 29e8 44c0 8632 5ec0 2360 2f40
00000060: 97e0 fbbf b2a1 9140 10b5 e93f 063c 5bbf
00000070: b2b2 7c3e 9aab 57c0 94d2 3c3f 0fe6 01c1
00000080: 0fa8 78bf 597f 0dbf e95c 1ec1 2939 1e40
00000090: a70c 2040 cd7b 54c0 dcae 8740 6918 883f
-2.2298489 9.972899 -1.3195404 -1.8026935 3.4903812 -2.3597083 0.5570724 -2.6433244
-0.65485674 4.979339 1.423722 -5.1706195 4.4671817 4.218515 6.6620684 7.5839643
3.4771552 -6.0272217 -4.8068905 -2.1916804 -7.0915875 -3.07667 -3.4718337 2.7402427
-1.9677914 4.550988 1.8258381 -0.85638463 0.24677542 -3.3698487 0.73758817 -8.118667
-0.9713144 -0.5527244 -9.897683 2.4722388 2.5007722 -3.3200562 4.240095 1.0632449

backbone.features.3.0.block.3.1.running_var f4 [40]
00000000: 3cc8 2442 1a13 6240 f719 8140 ff2a 5140
00000010: d426 e640 00c9 6240 b0df aa40 5d73 4f41
00000020: e874 9a40 5eaa 8840 06c7 8540 8159 e740
00000030: ed0e bd40 0411 3641 b149 a640 8234 9a41
00000040: 87b9 0541 558d b640 9415 9541 cb75 da40
00000050: 994a dd40 22c5 4841 3e65 7441 98e2 5241
00000060: c675 c241 018f c440 25ee c540 48f9 a840
00000070: a3f8 8440 6c4f c340 59c5 9941 9654 3641
00000080: b09f c540 2781 c740 97d4 e140 dd5b 7940
00000090: 48fe b940 d18a 1841 4802 5941 e75e 2441
41.19554 3.5324159 4.0344195 3.2682493 7.1922398 3.543518 5.3398056 12.965665
4.826771 4.270797 4.180545 7.229676 5.908072 11.379154 5.1964955 19.275639
8.357795 5.7047524 18.635536 6.826879 6.915356 12.548128 15.274717 13.180321
24.307507 6.1424565 6.1853204 5.28043 4.155351 6.103445 19.221361 11.395651
6.175743 6.2345157 7.057201 3.896232 5.81229 9.533891 13.563057 10.2731695

backbone.features.3.1.block.3.1.running_mean f4 [40]
00000000: 1d7d b7be bf43 5bbe b451 22bf 3ce4 29bf
00000010: 175f 5dbe 2e4e 06bf c6f3 5d3e cc8d 1bbf
00000020: 5121 e63e 252d 7a3e 93f7 683f 71e0 b2be
00000030: 6509 d7bd d3fb 433d b23e 98be e8e4 c1bc
00000040: 74f2 57bf 54b8 873f 0401 3c3f 3abe b23d
00000050: eee4 3abd 90b1 a3be f1db cdbe 52eb ef3e
00000060: b4e1 2b3e 036e 65bc ab5c 8bbd 08d8 bc3e
00000070: 24a0 f0bd 257a 73bf 9ed5 85be 260d 62bf
00000080: 4635 ebbe 5030 29bd 366e 213f 2479 e0be
00000090: a5a6 003f 11bc a33e bd8b cd3e 85a0 f73d
-0.3583764 -0.21412562 -0.6340592 -0.66363883 -0.21618305 -0.5246304 0.21675023 -0.6076324
0.44947293 0.24431284 0.9100277 -0.3493686 -0.10499839 0.04784758 -0.29735333 -0.023668721
-0.8435433 1.0603127 0.7343905 0.08727689 -0.04562848 -0.31971407 -0.40206864 0.46859223
0.16785318 -0.01400328 -0.068047844 0.3688357 -0.117492944 -0.9510825 -0.2613954 -0.8830131
-0.45939082 -0.04130584 0.63058794 -0.43842423 0.5025428 0.3197942 0.40145674 0.120911635

backbone.features.3.1.block.3.1.running_var f4 [40]
00000000: 28e6 0a3f f48c 913e a825 2b3f b355 c93e
00000010: 2cc6 f33e 9156 2b3f d591 903f b8d9 213f
00000020: bb4c d63e 4ce5 cf3f 3ecc 363f fc77 c13e
00000030: a337 1f3f 18db 143f e0c2 293f 08ac 223f
00000040: 7272 063f 3f85 423f f6ea 4c3f ae26 c73e
00000050: 5e6c c73e 1808 093f 2da6 003f b578 1d3f
00000060: ccee b93e 9332 e23e 03f8 1d3f d4e3 c53e
00000070: b533 ee3e 0e30 2b3f db20 0b3f ef16 003f
00000080: 16be be3e 5335 e33e acb1 113f 663e 503f
00000090: 7689 0740 ea17 ff3e 319f 2e3f 5e6c df3e
0.5425744 0.2842785 0.66854334 0.39323196 0.4761213 0.66928965 1.1294504 0.6322284
0.41855416 1.6241851 0.714054 0.37786853 0.6219427 0.5814681 0.6631298 0.6354375
0.5251838 0.7598457 0.8004602 0.38896698 0.38949865 0.53527975 0.50253564 0.6151231
0.36315 0.4417921 0.6170656 0.38650382 0.46523824 0.668702 0.5434701 0.50034994
0.372544 0.4437662 0.5691173 0.8134521 2.117765 0.49822932 0.68211657 0.43637365

val_5 f4 [32]
00000000: 0000 0000 0000 0000 0000 0000 0000 0000
00000010: 0000 0000 0000 0000 0000 0000 0000 0000
00000020: 0000 0000 0000 0000 0000 0000 0000 0000
00000030: 0000 0000 0000 0000 0000 0000 0000 0000
00000040: 0000 0000 0000 0000 0000 0000 0000 0000
00000050: 0000 0000 0000 0000 0000 0000 0000 0000
00000060: 0000 0000 0000 0000 0000 0000 0000 0000
00000070: 0000 0000 0000 0000 0000 0000 0000 0000
0.0 0.0 0.0 0.0 0.0 0.0 0.0 0.0
0.0 0.0 0.0 0.0 0.0 0.0 0.0 0.0
0.0 0.0 0.0 0.0 0.0 0.0 0.0 0.0
0.0 0.0 0.0 0.0 0.0 0.0 0.0 0.0

val_31 f4 [16]
00000000: 0000 0000 0000 0000 0000 0000 0000 0000
00000010: 0000 0000 0000 0000 0000 0000 0000 0000
00000020: 0000 0000 0000 0000 0000 0000 0000 0000
00000030: 0000 0000 0000 0000 0000 0000 0000 0000
0.0 0.0 0.0 0.0 0.0 0.0 0.0 0.0
0.0 0.0 0.0 0.0 0.0 0.0 0.0 0.0

val_63 f4 [24]
00000000: 0000 0000 0000 0000 0000 0000 0000 0000
00000010: 0000 0000 0000 0000 0000 0000 0000 0000
00000020: 0000 0000 0000 0000 0000 0000 0000 0000
00000030: 0000 0000 0000 0000 0000 0000 0000 0000
00000040: 0000 0000 0000 0000 0000 0000 0000 0000
00000050: 0000 0000 0000 0000 0000 0000 0000 0000
0.0 0.0 0.0 0.0 0.0 0.0 0.0 0.0
0.0 0.0 0.0 0.0 0.0 0.0 0.0 0.0
0.0 0.0 0.0 0.0 0.0 0.0 0.0 0.0

val_127 f4 [40]
00000000: 0000 0000 0000 0000 0000 0000 0000 0000
00000010: 0000 0000 0000 0000 0000 0000 0000 0000
00000020: 0000 0000 0000 0000 0000 0000 0000 0000
00000030: 0000 0000 0000 0000 0000 0000 0000 0000
00000040: 0000 0000 0000 0000 0000 0000 0000 0000
00000050: 0000 0000 0000 0000 0000 0000 0000 0000
00000060: 0000 0000 0000 0000 0000 0000 0000 0000
00000070: 0000 0000 0000 0000 0000 0000 0000 0000
00000080: 0000 0000 0000 0000 0000 0000 0000 0000
00000090: 0000 0000 0000 0000 0000 0000 0000 0000
0.0 0.0 0.0 0.0 0.0 0.0 0.0 0.0
0.0 0.0 0.0 0.0 0.0 0.0 0.0 0.0
0.0 0.0 0.0 0.0 0.0 0.0 0.0 0.0
0.0 0.0 0.0 0.0 0.0 0.0 0.0 0.0
0.0 0.0 0.0 0.0 0.0 0.0 0.0 0.0
