exports/yawn_model.onnx (onnx, 980101 bytes, 50 tensors)

backbone.features.0.1.weight f4 [32]
0	0x3ff0e5b8	1.8820105
1	0x3fd8ebde	1.6946981
2	0x4033ad23	2.8074424
3	0x412d8319	10.844506
4	0x3fb089a2	1.3792002
5	0x3f578945	0.8419383
6	0x40e070c6	7.0137663
7	0x407b075a	3.9223237
8	0x403ae631	2.9202998
9	0x4003b595	2.057958
10	0x40daf930	6.8429184
11	0x3fde2caa	1.735738
12	0x3e8b5ffd	0.2722167
13	0xbf0403e6	-0.5156845
14	0x3fb52314	1.415133
15	0x400a05a4	2.1565943
16	0x3f8dcf6a	1.1078923
17	0x3f01c792	0.50695145
18	0x3fdb8258	1.7149153
19	0x40e360fa	7.105588
20	0x40232190	2.5489235
21	0x40345aab	2.818034
22	0x4007eaa6	2.1236968
23	0x400145ef	2.0198934
24	0x401e77b4	2.476056
25	0x3fe90030	1.8203182
26	0x3f780c7d	0.96894056
27	0x3f953e67	1.1659669
28	0x3f9a2087	1.2041177
29	0x409087e3	4.5165877
30	0x3ee4ae8f	0.44664428
31	0x3f4964a5	0.78669196

backbone.features.0.1.bias f4 [32]
0	0x401f8e23	2.4930503
1	0x401562b2	2.334149
2	0x404957fc	3.1459951
3	0x3fbd7f8b	1.4804548
4	0x402789b9	2.617781
5	0x3fd8fc46	1.6951988
6	0xc1520c85	-13.128057
7	0x412a00cb	10.625194
8	0x410054f4	8.0207405
9	0xc02c02e2	-2.687676
10	0xc1361e78	-11.382439
11	0x401eeb7a	2.4831223
12	0xbcb94644	-0.022616513
13	0xc020a1f4	-2.5098848
14	0x402887a1	2.6332781
15	0x40e41e8c	7.128729
16	0x408d039e	4.4066916
17	0xbf50cfa3	-0.8156683
18	0x3f96b649	1.1774379
19	0x408b5bf0	4.354973
20	0x40fc4cae	7.8843603
21	0xc08b23da	-4.3481264
22	0xc0266d97	-2.6004388
23	0x401b8380	2.4299011
24	0xc079f68b	-3.9056728
25	0x3fd4e9b1	1.6633817
26	0x3fcfd2ec	1.6236243
27	0x4019004e	2.3906436
28	0xbbc233d1	-0.005926587
29	0x412c2a72	10.760363
30	0x3f88a941	1.0676652
31	0x3e51b263	0.20478205

backbone.features.1.0.block.0.1.weight f4 [32]
0	0x3fe9f4c3	1.827782
1	0x3fbd704d	1.4799896
2	0x408495a9	4.143269
3	0x40bdb967	5.928882
4	0x400a8308	2.1642475
5	0x3f686cb0	0.90790844
6	0x3f4822d8	0.7817817
7	0x4094ddf1	4.6520925
8	0x3fcaf7fa	1.5856926
9	0x3f167753	0.58775824
10	0x3f5b415f	0.85646623
11	0xc00eaee8	-2.2294254
12	0x3fbe405a	1.4863389
13	0x40830fce	4.0956793
14	0x3fa24390	1.2676868
15	0x401dfef1	2.4686854
16	0x3ff69b50	1.9266148
17	0x3f8c3761	1.09544
18	0x3fa87478	1.3160543
19	0x40d033ba	6.5063143
20	0x3fb5c1d5	1.4199778
21	0x3f03d8bf	0.51502603
22	0x3fd0b7ba	1.6306069
23	0x3ff81ffd	1.9384762
24	0x401571e5	2.3350766
25	0x3f9dd582	1.2330782
26	0x3f58b626	0.84652936
27	0x3fa57461	1.2926141
28	0x3f43e2a3	0.76517695
29	0x40bec105	5.961062
30	0x3fda3b46	1.7049339
31	0x40670726	3.6098113

backbone.features.1.0.block.0.1.bias f4 [32]
0	0x3fd74471	1.6817762
1	0x40181070	2.3760033
2	0xc01be5a7	-2.4358919
3	0xbef0718c	-0.4696163
4	0x410c3310	8.762466
5	0x41168f2f	9.409957
6	0xbfc6512b	-1.549352
7	0x3fd6300a	1.673341
8	0x3ffbd8c5	1.9675528
9	0xbed4c652	-0.41557556
10	0xbfb7faa0	-1.437336
11	0x4019e3ed	2.4045365
12	0x40d3da6e	6.620414
13	0xbfee685d	-1.8625599
14	0x407d984c	3.9624205
15	0x40105199	2.2549803
16	0xbfd537c9	-1.6657649
17	0x40cdb7cb	6.4286857
18	0x3ffe0f91	1.98485
19	0xbfba13b7	-1.4537266
20	0x400f5219	2.2393858
21	0x3b66980a	0.0035185837
22	0x3d9eb1f6	0.07748787
23	0x3ff5ec6b	1.9212774
24	0x3e40c780	0.18826103
25	0x400f3b08	2.237978
26	0x4119dfcd	9.617139
27	0x4025afaa	2.5888467
28	0x411e3fd8	9.890587
29	0x3ffdec35	1.983771
30	0x3ff98a68	1.9495363
31	0x400be68a	2.185946

backbone.features.1.0.block.1.fc1.bias f4 [8]
0	0xbf9b27e6	-1.2121551
1	0xbe0e9dad	-0.13927336
2	0xbf9f4d9d	-1.2445561
3	0xbf8b8f96	-1.0903194
4	0xbfe18388	-1.7618265
5	0xbfe5ca4e	-1.7952363
6	0xbfc5dc51	-1.545786
7	0xbf3a0d82	-0.7267686

backbone.features.1.0.block.1.fc2.bias f4 [32]
0	0x3fe7079f	1.8049201
1	0x40824075	4.0703683
2	0xbf07b4c8	-0.53010225
3	0xbe09e4ed	-0.13466235
4	0x405f652b	3.4905498
5	0x3f917c3d	1.136604
6	0x3f5c1221	0.8596516
7	0xbf56ddef	-0.83932394
8	0x402e88fd	2.727111
9	0x3f94ba22	1.1619303
10	0x3f0145fa	0.504974
11	0xbde0e9ef	-0.10982119
12	0x3f2a9287	0.66629833
13	0xbefca5a5	-0.49345127
14	0x40282adc	2.627616
15	0x3f364e3f	0.71213144
16	0x3f0217c6	0.50817525
17	0x3eccce7c	0.40001285
18	0xbf3d4c06	-0.7394413
19	0xc001c0b0	-2.0273857
20	0x3fd47519	1.6598235
21	0x3f67cc58	0.9054618
22	0xbfa49869	-1.2859012
23	0x402372a7	2.5538728
24	0xbfc6cc34	-1.5531068
25	0xbf6c89de	-0.9239787
26	0x401f1bfd	2.4860833
27	0x4075af65	3.8388302
28	0xbba4f922	-0.0050345818
29	0xbf9b86f3	-1.2150558
30	0x4088e4e3	4.2779403
31	0xc007e9b6	-2.1236396

backbone.features.1.0.block.2.1.weight f4 [16]
0	0x40cd49c9	6.415257
1	0x40c432ba	6.131192
2	0x40c89127	6.267719
3	0x40d27776	6.5770826
4	0x40abeab4	5.3724003
5	0x40d1d164	6.5568104
6	0x40b48c57	5.6421313
7	0x40e7213b	7.2228065
8	0x40d41d6c	6.6285915
9	0x40b47263	5.638963
10	0x40e6946a	7.205617
11	0x40cabb41	6.335358
12	0x409f2968	4.9738045
13	0x40d3fca1	6.6245885
14	0x40d4f005	6.6542993
15	0x40e9d227	7.3069034

backbone.features.1.0.block.2.1.bias f4 [16]
0	0xbc04268d	-0.008065832
1	0xbc28620b	-0.0102772815
2	0xbb086303	-0.0020810969
3	0x3b14863b	0.0022663015
4	0x3c5c0317	0.013428471
5	0x3b425f84	0.0029658983
6	0xbb1c68dd	-0.0023866214
7	0xbb43acef	-0.0029857715
8	0xbc03fed9	-0.008056366
9	0xbc2ec456	-0.010666927
10	0xbbde09bb	-0.0067760623
11	0xbb5d2d9a	-0.0033749104
12	0xbb80a05f	-0.0039253677
13	0xbb8018fc	-0.0039092284
14	0xb9285ca9	-0.00016056247
15	0xb919a754	-0.00014653552

backbone.features.2.0.block.2.fc1.bias f4 [4]
0	0x3ef94387	0.48684332
1	0x3ff15406	1.8853767
2	0xbd05736f	-0.03258079
3	0xbe25e04b	-0.16198842

backbone.features.2.0.block.3.1.weight f4 [24]
0	0x40d29dd0	6.581764
1	0x40e537d8	7.163067
2	0x40aec629	5.4616895
3	0x41059e6c	8.351177
4	0x40e0a3c9	7.0199933
5	0x40ca157f	6.315124
6	0x41047099	8.27749
7	0x40c5edff	6.1853023
8	0x41053f32	8.327929
9	0x40de0892	6.938546
10	0x40b29738	5.5809593
11	0x405ca160	3.4473495
12	0x40ae326b	5.4436545
13	0x40f801fd	7.7502427
14	0x41078fe6	8.472631
15	0x40accb97	5.3998523
16	0x40c7e94f	6.24723
17	0x4103e992	8.244524
18	0x40d86b50	6.7630997
19	0x410f22d4	8.946003
20	0x40f3a856	7.614299
21	0x410d02b6	8.813162
22	0x40cb1c57	6.3472095
23	0x40b7bad8	5.741558

backbone.features.2.0.block.3.1.bias f4 [24]
0	0x3bb98a21	0.005662218
1	0x3b02ed00	0.0019977689
2	0xbba4bd1c	-0.0050274264
3	0xbad5aab0	-0.0016301479
4	0xb902e524	-0.00012483128
5	0xba216e90	-0.00061581377
6	0xbad5283c	-0.0016262601
7	0xb9ab2555	-0.00032643476
8	0xbb09b19f	-0.0021010411
9	0xbb28c643	-0.0025752939
10	0xb9da46ac	-0.00041632855
11	0x39073718	0.00012895127
12	0xbb3c87ac	-0.002876739
13	0x3aacbf36	0.0013179544
14	0x398e2de4	0.00027118542
15	0xbb138b9c	-0.0022513634
16	0x384c495c	4.870571e-05
17	0x39f02c8e	0.00045809563
18	0x3b15c7ba	0.0022854642
19	0xb9ce902e	-0.00039398804
20	0xb9ae9cfe	-0.00033304835
21	0xb7def623	-2.6579079e-05
22	0x3a1e6404	0.0006042125
23	0xba0b44d3	-0.0005312685

backbone.features.2.1.block.2.fc1.bias f4 [6]
0	0xbed749fe	-0.4204864
1	0xbf34f1bb	-0.7068135
2	0x4016612d	2.3496811
3	0x3fc05bb2	1.5027983
4	0x4026bd67	2.6053102
5	0x3f9f53c7	1.2447442

backbone.features.2.1.block.3.1.weight f4 [24]
0	0x40b62fc5	5.6933312
1	0x408c99f9	4.3937955
2	0x3f79b0dd	0.97535497
3	0x409ce97b	4.903501
4	0x40ad6a26	5.4192076
5	0x40eb7806	7.3584013
6	0x409cac4f	4.896034
7	0x40a75757	5.2294116
8	0x4086467c	4.196104
9	0x40b72194	5.722849
10	0x407ae569	3.920252
11	0x4103aa1d	8.229032
12	0x40a24e73	5.0720763
13	0x409ab87a	4.835019
14	0x40a8ee04	5.2790546
15	0x3f845da6	1.0341079
16	0x401616dc	2.3451452
17	0x4070aeb0	3.760662
18	0x40a2788b	5.0772147
19	0xc023e068	-2.5605717
20	0x40aa05f7	5.313228
21	0x408c0725	4.375872
22	0x40a96c8d	5.294501
23	0x3f78bd5a	0.9716393

backbone.features.2.1.block.3.1.bias f4 [24]
0	0x407de683	3.9671943
1	0x4053e23e	3.3106837
2	0xbd18c868	-0.037300497
3	0xc0308942	-2.7583776
4	0xbfecac72	-1.8490126
5	0xc0a662d7	-5.1995654
6	0xc0129cc6	-2.2908187
7	0xbf200920	-0.62513924
8	0xbfae0ee5	-1.3598295
9	0xbfb2c372	-1.3965895
10	0x400323c8	2.049059
11	0x3f85e1f8	1.0459585
12	0x403751f2	2.8643765
13	0xc00860f8	-2.1309185
14	0x401793b9	2.3683913
15	0x3dd182d0	0.10230029
16	0x4097093f	4.7198787
17	0xbfeb0d12	-1.8363364
18	0x3fe92951	1.8215734
19	0xbf51701f	-0.8181171
20	0xc074f9ee	-3.8277545
21	0xbfd6d413	-1.678347
22	0xbf834a39	-1.0257026
23	0xbe692504	-0.22768027

backbone.features.3.0.block.2.fc1.bias f4 [6]
0	0x3fc8933b	1.5669931
1	0x3f36ca1a	0.7140213
2	0x3e95bc49	0.29245213
3	0x3e586cf6	0.21135315
4	0x3f66b501	0.9011994
5	0x3f8eb67c	1.114944

backbone.features.3.0.block.3.1.weight f4 [40]
0	0x41202555	10.009114
1	0x40a1bed2	5.0545435
2	0x40a6fdc4	5.2184772
3	0x40b903bc	5.781706
4	0x40b60490	5.688057
5	0x40b10341	5.531647
6	0x40c30ef6	6.0955763
7	0x40d43520	6.631485
8	0x40b048ca	5.5088854
9	0x40f8c89b	7.774488
10	0x40b92209	5.7854047
11	0x40b15264	5.5413074
12	0x40a7d32c	5.244528
13	0x40dc7501	6.8892827
14	0x40b512ae	5.65853
15	0x40f4c66d	7.649222
16	0x40c71f75	6.22259
17	0x40b34068	5.601612
18	0x40e858bc	7.260832
19	0x40c351f1	6.1037526
20	0x40b065de	5.512435
21	0x40e24771	7.071221
22	0x40fb615f	7.855636
23	0x40d63064	6.693407
24	0x40f4606a	7.6367693
25	0x40aa940d	5.3305726
26	0x40ac4a6d	5.384085
27	0x40c2d5aa	6.088582
28	0x40a8eff6	5.279292
29	0x40ac2f0f	5.3807445
30	0x40e26d24	7.075823
31	0x40c8ee6b	6.2791038
32	0x40b90a99	5.7825437
33	0x40afd451	5.4946675
34	0x40bd48fe	5.91516
35	0x40b32601	5.598389
36	0x410225c4	8.13422
37	0x40ccaf65	6.3964105
38	0x40f66cb9	7.700772
39	0x40c2b6c7	6.0848117

backbone.features.3.0.block.3.1.bias f4 [40]
0	0xbb6327e5	-0.003466123
1	0x3a497aa6	0.00076858175
2	0x38442622	4.6765555e-05
3	0x38bc87ca	8.989831e-05
4	0x395f6b67	0.00021306948
5	0xb9a852e4	-0.00032105215
6	0x3a90f601	0.0011059643
7	0xb9235553	-0.00015576677
8	0x391189b4	0.00013879576
9	0x3a3dcc26	0.00072401983
10	0xb8eb4669	-0.00011218788
11	0xb90b9584	-0.00013311772
12	0xba876200	-0.0010328889
13	0xba0e2363	-0.0005422143
14	0xb92c50c8	-0.00016433292
15	0x3a7c7052	0.0009629774
16	0xb9a55181	-0.00031531978
17	0x39ac91ae	0.00032914936
18	0xbac81a05	-0.0015266543
19	0xbb38966b	-0.0028165828
20	0x3a31291e	0.0006758141
21	0x3aaefd19	0.0013350575
22	0x3774f536	1.4600626e-05
23	0xb9a231b5	-0.00030936082
24	0x3a56baef	0.00081913074
25	0x3a1820a3	0.0005803203
26	0x3b13a235	0.0022527103
27	0x3aed37dc	0.0018098312
28	0x3a8d67ac	0.0010788343
29	0xba1ae940	-0.0005909391
30	0xbb1c919e	-0.0023890506
31	0xba51c264	-0.0008001684
32	0xbac44e0e	-0.0014976875
33	0xb9ed986e	-0.00045317732
34	0xb9e24297	-0.00043155692
35	0xb8c6795f	-9.463983e-05
36	0xba89688f	-0.0010483431
37	0x3b190375	0.0023348008
38	0x39e09556	0.00042835873
39	0x390a3010	0.0001317861

backbone.features.3.1.block.2.fc1.bias f4 [10]
0	0x3f85fb32	1.0467284
1	0x3f817b77	1.0115803
2	0x401f84f8	2.4924908
3	0xbd988a41	-0.07448245
4	0x3fd710fd	1.680206
5	0x3fb6fa62	1.4295161
6	0x3f72ef39	0.94896275
7	0x3f887bbb	1.066276
8	0x3f923996	1.1423824
9	0x3f8632ac	1.0484214

backbone.features.3.1.block.3.1.weight f4 [40]
0	0x3f9e8bad	1.2386376
1	0x3ff62cfd	1.9232479
2	0x405847b5	3.3793766
3	0x402d8381	2.7111514
4	0x3ff5ee72	1.9213393
5	0x408888ba	4.2666903
6	0x40cf318e	6.474799
7	0x40157ffc	2.3359365
8	0x3fdcc86d	1.7248665
9	0x40d7004a	6.7187853
10	0x40933f18	4.601452
11	0x3ffd7f40	1.9804459
12	0x4045e216	3.0919242
13	0x3ff2e49c	1.8976016
14	0x40565c38	3.3493786
15	0x3fd83e5c	1.689403
16	0x3fd356d4	1.6510873
17	0x403d5e0e	2.9588656
18	0x4002c3d8	2.0432034
19	0x3fd21c10	1.6414814
20	0x3fe45253	1.7837623
21	0x4003ae2e	2.057506
22	0x3fe457fa	1.7839348
23	0x40083485	2.1282055
24	0x3fc5dcba	1.5457985
25	0x40382909	2.8775046
26	0x404cc508	3.1995258
27	0x40190b43	2.3913124
28	0x404c8b58	3.1960049
29	0x3fea369e	1.8297918
30	0x3fced33d	1.6158215
31	0x40076297	2.1153924
32	0x402524b3	2.580365
33	0x4002e15d	2.045005
34	0x402adced	2.6697342
35	0x4089fd13	4.312143
36	0x40bc4f88	5.8847084
37	0x3fdcaa4f	1.7239474
38	0x3fe97003	1.8237308
39	0x400344c3	2.051072

backbone.features.3.1.block.3.1.bias f4 [40]
0	0x3ff76557	1.9327801
1	0xbf5b46ec	-0.85655093
2	0xc0243dfc	-2.5662832
3	0xbff4cfa5	-1.9125868
4	0xbfe9dc86	-1.8270423
5	0xbe9633e9	-0.2933648
6	0xc06bfc71	-3.6872828
7	0xbfe405ad	-1.7814232
8	0xbf7af736	-0.98033464
9	0x40260610	2.59412
10	0x3ea130d1	0.31482556
11	0xbd6fe672	-0.05856938
12	0x3f7b6f03	0.98216265
13	0xbf832c21	-1.0247842
14	0xbf52f3c0	-0.82403183
15	0xbdc373c8	-0.09543568
16	0xbffe2f33	-1.9858154
17	0x3f82cbfc	1.0218501
18	0x3fba9588	1.4576883
19	0xbf958cb7	-1.1683568
20	0x3f442f21	0.76634413
21	0xbf3eded8	-0.7455878
22	0xbec25d50	-0.37961817
23	0x4035d13d	2.840896
24	0x39d238a1	0.00040096513
25	0x3e6fc2fd	0.23414226
26	0xbf4b691e	-0.7945727
27	0x3f95365a	1.1657212
28	0xbe466296	-0.19373545
29	0x3f979a33	1.1843933
30	0xbf579078	-0.84204817
31	0xbf6e52be	-0.93095005
32	0xbfd1f6c2	-1.640343
33	0xbf04ac76	-0.51825655
34	0xbf1d23ec	-0.6138294
35	0xbdcbceb1	-0.09951533
36	0x3f22f24b	0.6365096
37	0x3f8d474b	1.1037382
38	0x3d8afff5	0.06787101
39	0xbd654335	-0.055972297

backbone.features.4.0.block.2.fc1.bias f4 [10]
0	0xbe8865db	-0.2664021
1	0xbeaddb33	-0.33956298
2	0xbe6c8ff8	-0.23101795
3	0xbed0bae9	-0.407676
4	0x3e4bf57b	0.19917862
5	0x3eb22c79	0.34799555
6	0xbe5c8767	-0.21536027
7	0x3ea6419c	0.3247193
8	0x3e67ac21	0.22624256
9	0xbca7547e	-0.020426031

backbone.features.4.1.block.2.fc1.bias f4 [20]
0	0x3f5c5915	0.8607343
1	0x3fe23da9	1.7675067
2	0x3f5227db	0.82092065
3	0x3ee01f33	0.43773803
4	0x3ffce4e6	1.9757354
5	0x3f641ba5	0.8910468
6	0xbdec328e	-0.1153308
7	0x3f0a4f47	0.5402722
8	0x3f238e4c	0.63889
9	0x3f2677b5	0.6502641
10	0x3f8b2a6a	1.0872319
11	0xbe81b831	-0.2533584
12	0x3fae2b72	1.3607008
13	0x3fc43981	1.5330049
14	0x3f361330	0.7112303
15	0x3fba20e6	1.454129
16	0x3fde7556	1.7379558
17	0x3f9d11e4	1.2271085
18	0x3f2f19da	0.6839882
19	0x3f84b611	1.0368062

backbone.features.4.2.block.2.fc1.bias f4 [20]
0	0x4001d748	2.0287647
1	0x3f96ac47	1.1771325
2	0x3f00d427	0.5032372
3	0x3f9e2392	1.2354605
4	0x3cf7664a	0.030200142
5	0x3f43ba3b	0.7645604
6	0x3f652afe	0.89518726
7	0x3f8f51d9	1.1196853
8	0x3f37c7c0	0.7178917
9	0x3eb805f5	0.35942045
10	0x3f80efc9	1.0073177
11	0x3fb02e0b	1.3764051
12	0x3fbad9a1	1.4597665
13	0x3f8884c9	1.0665523
14	0x3f5c17a7	0.8597359
15	0x3f0f935a	0.56084216
16	0x3f5d08e0	0.8634167
17	0x3f5e1f83	0.86766833
18	0x3f35ce40	0.7101784
19	0x3ef775c1	0.48332027

backbone.features.5.0.block.2.fc1.bias f4 [20]
0	0x3f444485	0.7666705
1	0x3f09ba71	0.5380011
2	0x3ff00135	1.8750368
3	0x3f99a9a5	1.2004896
4	0x3fbb20f0	1.4619427
5	0x3f4aff35	0.79295665
6	0x3fc87d0f	1.5663165
7	0x3f3792bc	0.71708274
8	0x3fb13e0f	1.3847064
9	0x3dfcfafe	0.123525605
10	0x3fe27363	1.7691463
11	0xbe76168a	-0.24032035
12	0xbf8b1343	-1.0865253
13	0x3f66cacc	0.90153193
14	0x40024f75	2.0360997
15	0x3fdb86e2	1.7150538
16	0x3f2fbe46	0.6864971
17	0x3f5d4d7c	0.86446357
18	0x3f944f9e	1.1586797
19	0x3fbb8ba9	1.4651996

backbone.features.5.1.block.2.fc1.bias f4 [28]
0	0x3f4a3f78	0.79003096
1	0x3f2fd13e	0.68678653
2	0x3f82aedd	1.0209614
3	0x3f95b025	1.169438
4	0x3fcd591b	1.6042818
5	0x3f8647f8	1.0490713
6	0x3f7d4c8a	0.98944914
7	0x3f7479f3	0.9549858
8	0x3e7c7483	0.2465382
9	0x3f9aed76	1.2103717
10	0x3e726507	0.23671351
11	0x3f1a3f20	0.6025257
12	0x3f5739e1	0.8407269
13	0x3f4f7b76	0.8104776
14	0x3f9bcde6	1.217221
15	0x3f07755c	0.5291345
16	0x3f01eebf	0.5075492
17	0x3fc0d6a5	1.5065504
18	0x3f5a0a7e	0.8517226
19	0x3f9212ce	1.1411989
20	0x3f2b44ee	0.66902053
21	0x3f9e2042	1.2353594
22	0x3fa4159d	1.2819096
23	0x3e9a8629	0.3018048
24	0x3f7a2f59	0.97728497
25	0x3f941940	1.1570206
26	0x3f2a8067	0.66602176
27	0x3f986ce6	1.1908233

backbone.features.5.2.block.2.fc1.bias f4 [28]
0	0x3f17a554	0.59236646
1	0x3f659e72	0.89694893
2	0x3ef0ae47	0.47007963
3	0x3f37e375	0.71831447
4	0x3f0a87f1	0.5411368
5	0x3f0b55c2	0.5442773
6	0x3f548075	0.8300851
7	0x3eefefd2	0.46862656
8	0x3edecc7d	0.43515387
9	0x3f515f0c	0.81785655
10	0x3f411b1b	0.75431985
11	0x3f64338a	0.8914114
12	0x3ed0cc0c	0.40780675
13	0x3f2b86b2	0.67002404
14	0x3f5bb780	0.85826874
15	0x3f18fc13	0.59759635
16	0x3f460b6c	0.7736118
17	0x3efe839b	0.49709782
18	0x3f860452	1.0470068
19	0x3f34d28e	0.7063378
20	0x3fcd578a	1.604234
21	0x3f4854c7	0.7825436
22	0x3f9c55ef	1.2213725
23	0x3ee9a283	0.456318
24	0x3e55856e	0.2085168
25	0x3f998d81	1.1996309
26	0x3f369e9b	0.7133576
27	0x3e8a073e	0.2695865

backbone.features.6.0.block.2.fc1.bias f4 [28]
0	0x3f21abcb	0.6315276
1	0x3fcc6ac1	1.5970079
2	0x3ed5150a	0.41617614
3	0x40109c1a	2.2595277
4	0x3f4a41ec	0.7900684
5	0x3f72e5af	0.9488172
6	0x3f26a831	0.6510039
7	0x3e0a74e8	0.13521159
8	0x3fa44adf	1.2835349
9	0x3f43c121	0.76466566
10	0x3f983b39	1.1893073
11	0x3f278d05	0.65449554
12	0x400f696d	2.2408097
13	0x3ff09acc	1.879724
14	0x3ffeb0ea	1.989774
15	0xbceee962	-0.02916402
16	0x3f9e9d9b	1.2391847
17	0x3ec5a899	0.38605192
18	0x3f363a59	0.7118278
19	0x3df0cebe	0.11758183
20	0x3e693989	0.22775854
21	0x3f3f3252	0.7468616
22	0x3f38678d	0.72033006
23	0x4000b393	2.0109603
24	0x3d4aae85	0.04948284
25	0xbea1d8de	-0.3161077
26	0x3f0bf617	0.5467238
27	0xbfd5dee6	-1.6708648

backbone.features.6.1.block.2.fc1.bias f4 [48]
0	0x3f08f608	0.53500414
1	0x3e90cd60	0.2828169
2	0xbd0ca7c0	-0.034339666
3	0x3db9fb86	0.090811774
4	0x3e0c9fd1	0.1373284
5	0xbe47d6eb	-0.19515578
6	0xbd56a358	-0.05240187
7	0xbdf16d06	-0.11788373
8	0x3f235581	0.63802344
9	0xbf13892f	-0.576312
10	0x3c757a04	0.014982704
11	0xbeaaa64f	-0.33330008
12	0x3f4e013c	0.80470634
13	0xbef754a7	-0.48306772
14	0x3e054558	0.13014734
15	0xbdf647cf	-0.12025415
16	0x3f33e656	0.7027334
17	0x3e2f7d51	0.17137648
18	0x3e98e969	0.29865578
19	0x3e4a8870	0.1977861
20	0x3dae84d9	0.085214324
21	0x3f0d480c	0.5518806
22	0xbdd4c904	-0.10389903
23	0xbcadaccc	-0.02120056
24	0x3f03d327	0.5149407
25	0x3f0d6315	0.5522931
26	0xbe152d18	-0.14567983
27	0x3c9e7d6d	0.019346917
28	0x3f8a51ef	1.0806254
29	0x3d089cc0	0.033352613
30	0x3e1b6256	0.15174231
31	0x3eecfb8f	0.46285674
32	0x3f1655b5	0.5872453
33	0x3e4e014d	0.20117684
34	0x3f31b80e	0.6942147
35	0x3ec65b5c	0.38741577
36	0x3e839d6c	0.2570604
37	0xbd0c0819	-0.03418741
38	0x3e266043	0.16247658
39	0x3f02598f	0.50917906
40	0x3f89c0fc	1.0762019
41	0x3e839833	0.25702056
42	0x3e3fe530	0.18739772
43	0xbe5ed85c	-0.21762222
44	0x3cc1f004	0.023674019
45	0x3effadcb	0.4993728
46	0xbeb49564	-0.35270226
47	0x3f01d652	0.5071765

backbone.features.6.2.block.2.fc1.bias f4 [48]
0	0xbf31a95c	-0.69399047
1	0x3fdd83ee	1.7305887
2	0x3ee177e1	0.44036773
3	0x3e2eb7d4	0.17062312
4	0xbe69b431	-0.22822644
5	0x3e29bc4d	0.16575737
6	0x3f030ed3	0.51194495
7	0x3c376a88	0.011194833
8	0x3e2e8775	0.1704386
9	0x3eb72f23	0.3577815
10	0x3ee9ab20	0.4563837
11	0x3eaacb34	0.33358157
12	0x3f737735	0.9510377
13	0xbeee102a	-0.46496707
14	0x3e8908ce	0.2676453
15	0x3f467a70	0.77530575
16	0x3f6aef67	0.9177155
17	0xbec1646f	-0.37771937
18	0x3f25dde1	0.64791685
19	0xbadd9680	-0.0016905814
20	0x3edc559d	0.43034068
21	0x3ec01e43	0.37523088
22	0x3e3bda30	0.1834495
23	0x3f776cc1	0.9665032
24	0x3e6f26e4	0.2335468
25	0xbdec9c93	-0.11553302
26	0x3eaf292b	0.34211096
27	0x3f5dada9	0.8659311
28	0x3f165a0b	0.58731145
29	0xbefc4fff	-0.49279782
30	0x3f48ee0d	0.78488237
31	0x3ea86098	0.32886195
32	0x3f112d0b	0.56709355
33	0x3f29d57f	0.66341394
34	0x3ee0ca19	0.43904188
35	0x3e614c09	0.22001661
36	0x3e24d8a3	0.16098265
37	0x3e9d6ade	0.30745596
38	0x3f154e13	0.58322257
39	0xbe493ab5	-0.19651301
40	0x3f320fc6	0.6955532
41	0xbd9b8b15	-0.07594887
42	0x3f80f802	1.0075686
43	0x3e9d1544	0.30680287
44	0x3ef17b87	0.47164556
45	0xbe7822d6	-0.24232039
46	0x3e668294	0.22510749
47	0x3f48eaec	0.7848346

backbone.features.6.3.block.2.fc1.bias f4 [48]
0	0x3fef5c1f	1.8699988
1	0x3d7e2288	0.06204465
2	0x3e39caea	0.18143812
3	0xbddc2b1f	-0.10750412
4	0xba77b099	-0.00094486173
5	0xbe832556	-0.25614423
6	0x3f46aa2a	0.776034
7	0x3e570176	0.20996651
8	0x3fad5c94	1.3543878
9	0x3ed1b45f	0.40957925
10	0xbea4ccb7	-0.32187435
11	0xbcb24cff	-0.02176523
12	0x3fc98379	1.5743247
13	0xbee7b0e4	-0.45252144
14	0x3cd56538	0.026049241
15	0x40093445	2.1438153
16	0x3e691487	0.22761737
17	0x3e66038a	0.22462288
18	0x3f6477d7	0.8924536
19	0x3f9012be	1.125572
20	0xbd1227e4	-0.035682574
21	0x3e81182b	0.2521375
22	0x3fcc0d53	1.5941566
23	0x3dd1738a	0.102271155
24	0x3effdfce	0.49975437
25	0x3f9b65d6	1.2140453
26	0x3ccb9f5a	0.024856258
27	0xbedf803d	-0.43652526
28	0xbe267a40	-0.16257572
29	0x3dea5537	0.11442035
30	0x3e8b187d	0.2716712
31	0x3f0aa29d	0.5415438
32	0x3e3a532a	0.18195787
33	0x3f06efcd	0.52709657
34	0x3dc0674a	0.09394701
35	0x3e5cbec3	0.21557145
36	0x3fc168b2	1.5110075
37	0x3e9391f6	0.28822297
38	0x3e4e6f00	0.2015953
39	0xbe017ce9	-0.12645306
40	0x3f27180e	0.6527108
41	0x3ea17090	0.3153119
42	0x3dfa5959	0.12224073
43	0xbd81f761	-0.06346012
44	0x3e711943	0.23544793
45	0x3e38bc9c	0.18040699
46	0xbb1b6969	-0.0023713952
47	0xbe19eecb	-0.15032499

backbone.features.7.0.block.2.fc1.bias f4 [48]
0	0xbeb902c4	-0.36134923
1	0xbf995a5f	-1.1980704
2	0xbf5757d3	-0.84118384
3	0xbf468179	-0.7754131
4	0xbf834581	-1.0255586
5	0xbfd6a085	-1.6767737
6	0xbf2f572b	-0.6849238
7	0xbf91d628	-1.139348
8	0xc00b6d29	-2.1785376
9	0xbf9c3484	-1.2203526
10	0xbf8a1b23	-1.0789531
11	0xbebba9dd	-0.36653033
12	0xbf5fee54	-0.87473035
13	0xbf33d0e7	-0.70240635
14	0xbf27c6ae	-0.65537536
15	0xbf377a30	-0.7167082
16	0xbd22aa79	-0.039713357
17	0x40269ee8	2.6034489
18	0xbfbfcc67	-1.4984254
19	0xbf23f813	-0.64050406
20	0xbee5f2f5	-0.44911924
21	0xbd75ee18	-0.060041517
22	0xbf8e3190	-1.1108875
23	0xbf4896e5	-0.78355247
24	0xbe993fa1	-0.29931358
25	0xbf6ba112	-0.9204265
26	0xc00f92eb	-2.2433422
27	0xbf7baf1f	-0.9831409
28	0xbf3743d4	-0.7158787
29	0xbed0bb8f	-0.40768096
30	0xbf688fa7	-0.90844196
31	0xbed5a9eb	-0.417312
32	0xbe8f8e36	-0.28038186
33	0xc008880a	-2.1333032
34	0xbfbb73ff	-1.4644774
35	0xbf8d375e	-1.1032522
36	0xbf9e4d96	-1.2367427
37	0xbf38d8a1	-0.7220555
38	0xbf7e7084	-0.99390435
39	0xbf4a85c1	-0.7911034
40	0xbeddc641	-0.43315318
41	0xbf01d0e8	-0.5070939
42	0x3f47bcd4	0.78022504
43	0xbe157377	-0.14594828
44	0xbf984eba	-1.1899025
45	0xbee4c12a	-0.44678622
46	0xbfcf01d7	-1.6172436
47	0xbf6b5fa4	-0.9194281

backbone.classifier.1.bias f4 [2]
0	0x3cab5f36	0.020919424
1	0xbc8b611c	-0.017014079

backbone.features.0.1.running_mean f4 [32]
0	0x3deb67c4	0.11494401
1	0x3dd2a6e2	0.102857366
2	0x3d0dd302	0.03462506
3	0x3d854ac0	0.06508398
4	0xbc864704	-0.016391285
5	0xbeaf567d	-0.34245673
6	0xbee319c1	-0.44355586
7	0x3f62ae38	0.88547087
8	0x3f3473e7	0.7048935
9	0x3eab8aff	0.33504483
10	0xbfb07c40	-1.3787918
11	0xbd95353d	-0.07285545
12	0xbf38b509	-0.7215124
13	0xbef47885	-0.477482
14	0xbe0ccd53	-0.137502
15	0x39cde2e8	0.00039269705
16	0xbdb04151	-0.08606208
17	0x3f08c2bf	0.5342216
18	0x3f29bc5b	0.6630303
19	0xbee3511f	-0.44397828
20	0x3f39e512	0.7261516
21	0x3f1bfb55	0.6093038
22	0x3e906506	0.28202075
23	0x3d857c15	0.065178074
24	0xbeaafa67	-0.33394167
25	0x3d942b63	0.07234838
26	0x3e86fe16	0.26365727
27	0xbcdbfd64	-0.026854225
28	0x3ef3fafc	0.47652423
29	0xbf596620	-0.84921455
30	0x3cb336e2	0.021876756
31	0xbf1583c2	-0.5840417

backbone.features.0.1.running_var f4 [32]
0	0x40864e12	4.19703
1	0x4131e825	11.119176
2	0x3f07ce90	0.53049564
3	0x41bb5fa5	23.421701
4	0x3f2c987c	0.6742017
5	0x3f85ee8c	1.0463424
6	0x418e8e50	17.819489
7	0x41d28171	26.313204
8	0x41921637	18.260847
9	0x4188c85c	17.097832
10	0x42420e4e	48.51397
11	0x4054d51d	3.3255074
12	0x41a25466	20.29121
13	0x40fcbee4	7.898302
14	0x408c2480	4.3794556
15	0x3f7cbdd7	0.9872717
16	0x3f89bac9	1.0760127
17	0x412751a5	10.457433
18	0x3fb6e784	1.4289403
19	0x403c0124	2.9375696
20	0x419c2123	19.51618
21	0x411caabd	9.791684
22	0x404a4fe0	3.1611252
23	0x40351801	2.82959
24	0x40a06334	5.0121098
25	0x4044b9f6	3.0738502
26	0x3f769f2e	0.9633664
27	0x3f38eee9	0.7223955
28	0x4052f0db	3.2959507
29	0x41c11696	24.136028
30	0x413da56a	11.852884
31	0x40b72ae1	5.7239842

backbone.features.1.0.block.0.1.running_mean f4 [32]
0	0x400abd58	2.1678066
1	0x40423c3f	3.0349271
2	0x3faafd15	1.3358485
3	0xc0d3850c	-6.609991
4	0x3dc8c13c	0.098024815
5	0xbf5200f0	-0.8203268
6	0x3cd235e5	0.025660465
7	0xbf09ad80	-0.53780365
8	0xbbdf0bb2	-0.006806814
9	0xbda19320	-0.0788939
10	0x3d1f2154	0.038850144
11	0xbfdf4496	-1.7442806
12	0xbbd3da23	-0.006465213
13	0xbc3d7554	-0.011563618
14	0xc070030c	-3.750186
15	0x3e8a6242	0.2702809
16	0xc053c6b2	-3.3090024
17	0x3e539b3a	0.20664683
18	0xbf62eb2e	-0.88640106
19	0xc063f4d8	-3.561819
20	0xbf7a4e91	-0.9777613
21	0xbd330108	-0.043702155
22	0xbc94b8ca	-0.01815452
23	0x3fd26282	1.6436312
24	0xbb02d282	-0.0019961898
25	0xbf91f9fb	-1.1404413
26	0xbf2a7148	-0.66579103
27	0xbe8e278d	-0.2776455
28	0xbdecb7b4	-0.11558476
29	0xbf9b219a	-1.2119629
30	0xbfa9394d	-1.3220612
31	0x3e03eb1a	0.12882653

backbone.features.1.0.block.0.1.running_var f4 [32]
0	0x40841cd2	4.128518
1	0x406d3804	3.706544
2	0x408592b4	4.174158
3	0x4352dcd7	210.86266
4	0x3f90a0a8	1.1299028
5	0x3ef7fb87	0.48434088
6	0x3d367bb7	0.044551577
7	0x4337e65f	183.89989
8	0x420ea222	35.658333
9	0x3b75132b	0.0037395458
10	0x3d6ce96c	0.057839796
11	0x403d1438	2.954359
12	0x3ce6c623	0.02817065
13	0x3be8712a	0.0070935683
14	0x400c4d71	2.1922266
15	0x408f62d5	4.4808145
16	0x3f4c1170	0.7971411
17	0x3be9d8d7	0.007136445
18	0x3f6a6bec	0.91570926
19	0x41bf6472	23.924046
20	0x41adad73	21.709692
21	0x3b2fe8fa	0.0026841746
22	0x3beef0d8	0.0072918944
23	0x40500d75	3.2508214
24	0x3c853191	0.016258987
25	0x3f26f506	0.65217626
26	0x3f5d0a9d	0.8634432
27	0x3faa98e1	1.3327905
28	0x3e0edac3	0.13950638
29	0x436c33ab	236.20183
30	0x3ef853e7	0.48501512
31	0x3e76527e	0.24054906

backbone.features.1.0.block.2.1.running_mean f4 [16]
0	0x403bb5c5	2.9329693
1	0xc020d2d9	-2.5128691
2	0x4149be55	12.608968
3	0xbe7a5d6c	-0.244497
4	0x3f84be6a	1.037061
5	0x40fc3ff2	7.882806
6	0x41372671	11.446885
7	0xbfd7ef3e	-1.6869886
8	0xc03d9116	-2.9619803
9	0x40315b9a	2.771216
10	0xc1306175	-11.023793
11	0xbf5965b5	-0.8492082
12	0xc0a412fe	-5.1273184
13	0x40b1f81f	5.561538
14	0x3f5d3259	0.8640495
15	0x4150e56e	13.056013

backbone.features.1.0.block.2.1.running_var f4 [16]
0	0x411ee7ef	9.931624
1	0x410324af	8.196456
2	0x404fb82c	3.245616
3	0x408438c5	4.13193
4	0x40bd5292	5.9163294
5	0x4025cf83	2.5907905
6	0x40c30eaa	6.09554
7	0x402b632e	2.6779284
8	0x4040db81	3.0133975
9	0x40eedaf2	7.4642267
10	0x405eaf95	3.4794667
11	0x400da131	2.2129633
12	0x3f9c4f8e	1.2211778
13	0x40a1568a	5.041814
14	0x401aec46	2.420671
15	0x40834403	4.102052

backbone.features.2.0.block.3.1.running_mean f4 [24]
0	0xc148ccd8	-12.550011
1	0x41ae6d38	21.80333
2	0xc0df3460	-6.9751434
3	0xc19c16d7	-19.511152
4	0xbf4374b3	-0.76349944
5	0x41c1dfa0	24.234192
6	0x4177346c	15.450298
7	0xc0a2b563	-5.084642
8	0xc159ff51	-13.624833
9	0xc0e414a8	-7.1275215
10	0xc1104aae	-9.018232
11	0x4096e19a	4.7150393
12	0xc0deb385	-6.959414
13	0x418a57c3	17.292852
14	0xc00d5b77	-2.2087076
15	0x406f6efc	3.741149
16	0x413848c1	11.517762
17	0xc0dabd3f	-6.8356013
18	0xc1001b19	-8.006616
19	0xc1ce252d	-25.768152
20	0xc01976bd	-2.3978722
21	0xc1372d75	-11.448598
22	0xc00d4eda	-2.2079377
23	0xc1695104	-14.582279

backbone.features.2.0.block.3.1.running_var f4 [24]
0	0x42a4be96	82.37224
1	0x42eb75f7	117.7304
2	0x43118eb0	145.55737
3	0x432a73f7	170.45299
4	0x42420056	48.500328
5	0x422dad41	43.419193
6	0x43190d3e	153.05173
7	0x42888836	68.26604
8	0x433dbc03	189.73442
9	0x429be7f7	77.95306
10	0x421438bb	37.0554
11	0x419e5b5f	19.794615
12	0x4217a23f	37.908443
13	0x430f9989	143.59975
14	0x43687ff2	232.49979
15	0x432791a4	167.56891
16	0x4264e810	57.226624
17	0x43178a54	151.54034
18	0x4284dab3	66.42715
19	0x43eec992	477.57477
20	0x431e0532	158.0203
21	0x438fcf91	287.6216
22	0x429bed91	77.964
23	0x4349c7d3	201.78056

backbone.features.2.1.block.3.1.running_mean f4 [24]
0	0xbf57106b	-0.84009427
1	0xbfff3ca2	-1.9940379
2	0x3d82122b	0.063511215
3	0xbf866cb9	-1.050193
4	0xbf84bb69	-1.0369693
5	0x4085ac42	4.1772776
6	0x3febb04f	1.841318
7	0xc03a0b40	-2.9069366
8	0xbf9a14bf	-1.2037581
9	0x3ffbda27	1.967595
10	0x3f320a3c	0.69546866
11	0xc02e318b	-2.7217739
12	0xbfa065b8	-1.2531042
13	0x3f28768a	0.65805876
14	0xbf713e1e	-0.9423541
15	0x3e844a16	0.25837773
16	0x3f002243	0.5005228
17	0x3e83cd01	0.25742343
18	0xbf85447e	-1.0411527
19	0xbe76cf62	-0.24102548
20	0x4050f180	3.26474
21	0xc0130d23	-2.2976768
22	0xbef2ab59	-0.47396353
23	0xbfbf9973	-1.4968704

backbone.features.2.1.block.3.1.running_var f4 [24]
0	0x40647db7	3.570173
1	0x405d73d9	3.4601958
2	0x3fe19a58	1.7625227
3	0x4088e9d3	4.278543
4	0x406c9f6c	3.6972303
5	0x408e09cc	4.438696
6	0x4080f234	4.029566
7	0x4059e8d6	3.4048362
8	0x40391057	2.8916223
9	0x402ebe8f	2.7303808
10	0x4018efb8	2.3896313
11	0x407d7390	3.9601784
12	0x401b0727	2.4223115
13	0x4051e25d	3.279441
14	0x40849db7	4.1442523
15	0x3fddd313	1.733004
16	0x3fdf5832	1.744879
17	0x404d84ec	3.211238
18	0x403a831a	2.9142518
19	0x4036f821	2.8588946
20	0x40726a7b	3.787749
21	0x408372f0	4.1077805
22	0x40419c92	3.0251813
23	0x3fd6673e	1.6750257

backbone.features.3.0.block.3.1.running_mean f4 [40]
0	0xc00a7848	-2.1635914
1	0x411d0536	9.813772
2	0xbfaf862b	-1.371282
3	0xc0287d71	-2.6326563
4	0x401e3381	2.4718935
5	0xc0143b0e	-2.3161044
6	0x3f19c5d1	0.6006747
7	0xbfa3a738	-1.2785406
8	0xbed8db45	-0.4235479
9	0x4093f3fb	4.623533
10	0x400ec0be	2.230514
11	0xc09a044e	-4.8130255
12	0x40a481ea	5.1408587
13	0x409a5293	4.82258
14	0x40bdfa11	5.9367757
15	0x40df299a	6.9738283
16	0x4027abc2	2.6198583
17	0xc0a55b00	-5.1673584
18	0xc0b168da	-5.5440493
19	0xbffec4dc	-1.9903827
20	0xc100e691	-8.056291
21	0xc07d844e	-3.9612002
22	0xc08a7237	-4.3264422
23	0x400f9c3c	2.2439108
24	0xbfd2fe8a	-1.6483929
25	0x4095b39e	4.678176
26	0x4023537c	2.5519705
27	0xbf7068ac	-0.93909717
28	0x3e6ef2d3	0.23334818
29	0xc04ccf03	-3.200135
30	0x3f835688	1.0260782
31	0xc0e79149	-7.236485
32	0xbee3997d	-0.4445304
33	0xbee59024	-0.44836533
34	0xc1215d94	-10.085346
35	0x4010f6f6	2.2650733
36	0x40323c8c	2.7849455
37	0xc064da8a	-3.5758386
38	0x407e3145	3.9717572
39	0x3f1ddd76	0.6166605

backbone.features.3.0.block.3.1.running_var f4 [40]
0	0x42223c6f	40.559017
1	0x403c357f	2.9407651
2	0x40548948	3.320879
3	0x406b8878	3.6802044
4	0x40ffb604	7.9909687
5	0x4039086a	2.8911386
6	0x40796385	3.8966992
7	0x41595c42	13.585024
8	0x40934572	4.602227
9	0x4083cccb	4.118749
10	0x40a77d83	5.2340713
11	0x40bd04bf	5.9068294
12	0x40a0cd05	5.025027
13	0x4155257d	13.321652
14	0x40a9e1fc	5.308836
15	0x41acd8d2	21.60587
16	0x4125225d	10.320889
17	0x40ba4b20	5.8216705
18	0x41b58fb3	22.695166
19	0x40ee33a7	7.443805
20	0x40f7d03a	7.7441683
21	0x415b61e5	13.7114
22	0x41ad25df	21.643492
23	0x416da09c	14.851711
24	0x41adeca3	21.740545
25	0x40954d16	4.66566
26	0x409502d5	4.6565957
27	0x40ac0e11	5.376717
28	0x404bc6f9	3.1840193
29	0x40a6a55a	5.2076845
30	0x419579f4	18.684547
31	0x41304d39	11.018853
32	0x40b0f900	5.5303955
33	0x40b11553	5.533853
34	0x40abe363	5.371507
35	0x4076c4a8	3.855753
36	0x40c4a49d	6.1450944
37	0x412c69ea	10.775858
38	0x4156cdb7	13.425223
39	0x40e5ba75	7.179011

backbone.features.3.1.block.3.1.running_mean f4 [40]
0	0xbefdc147	-0.4956152
1	0xbeac3488	-0.33633828
2	0xbf1d3968	-0.6141572
3	0xbefc224e	-0.49244922
4	0xbd028c98	-0.031872362
5	0xbf3fe3fc	-0.7495725
6	0x3df93278	0.12167829
7	0xbf275ab1	-0.6537276
8	0x3ec04e57	0.3755977
9	0x3eea4ee2	0.45763308
10	0x3f845649	1.0338832
11	0xbea65959	-0.32490042
12	0xbda7fad9	-0.08202142
13	0x3eecfee3	0.46288213
14	0xbed82e4d	-0.42222825
15	0x3e03d5de	0.12874553
16	0xbf3b4c74	-0.73163533
17	0x3f3835f0	0.719573
18	0x3f26f841	0.65222555
19	0x3dd518b1	0.104051
20	0x3e15162c	0.14559239
21	0xbe04128a	-0.12897697
22	0xbe7849e8	-0.24246943
23	0x3ec33a4e	0.3813042
24	0x3e6bad39	0.23015298
25	0xbe5babfd	-0.21452327
26	0xbd1927a8	-0.037391335
27	0x3d57a523	0.05264772
28	0xbcd05ddd	-0.025435383
29	0xbf601e06	-0.8754581
30	0xbeb7b104	-0.3587724
31	0xbf4f427f	-0.8096084
32	0xbde2de91	-0.110776074
33	0xbe138b5e	-0.14408633
34	0x3f1f9777	0.6234049
35	0xbe9deb35	-0.3084351
36	0x3ed1cc40	0.40976143
37	0x3e70ce8a	0.23516288
38	0x3ec87fd5	0.39160028
39	0x3df2b3e0	0.11850715

backbone.features.3.1.block.3.1.running_var f4 [40]
0	0x3edfae78	0.43687797
1	0x3e7612fe	0.24030682
2	0x3ece497c	0.4029044
3	0x3e8ae420	0.2712717
4	0x3ea611c8	0.3243544
5	0x3ed995ce	0.42497104
6	0x3f32057f	0.69539636
7	0x3ec92520	0.39286137
8	0x3e71da5f	0.23618458
9	0x3f648bd9	0.8927589
10	0x3eec07a1	0.4609957
11	0x3e8812be	0.265768
12	0x3eb7b049	0.35876682
13	0x3ec9970d	0.39373055
14	0x3ec2897f	0.37995526
15	0x3eb4cc41	0.35312083
16	0x3e8a0573	0.26957282
17	0x3ef2b8ea	0.47406703
18	0x3ee6a4ab	0.45047507
19	0x3e8b2d47	0.2718298
20	0x3e8b399d	0.27192393
21	0x3ec1b1bb	0.3783091
22	0x3ebd970f	0.3702931
23	0x3edd337e	0.43203348
24	0x3eb8e03d	0.3610858
25	0x3ec119a1	0.37714866
26	0x3ede8306	0.43459338
27	0x3eb87656	0.36027783
28	0x3e99bc80	0.30026627
29	0x3e96d87a	0.29462034
30	0x3e9c2d54	0.30503333
31	0x3ebd118a	0.36927444
32	0x3ed17723	0.40911207
33	0x3e891651	0.2677484
34	0x3ee68f34	0.4503113
35	0x3f032b69	0.51238114
36	0x3f7f535f	0.9973659
37	0x3e8dde4c	0.27708662
38	0x3edb2e53	0.4280878
39	0x3e9a5df3	0.30149803

val_5 f4 [32]
0	0x00000000	0.0
1	0x00000000	0.0
2	0x00000000	0.0
3	0x00000000	0.0
4	0x00000000	0.0
5	0x00000000	0.0
6	0x00000000	0.0
7	0x00000000	0.0
8	0x00000000	0.0
9	0x00000000	0.0
10	0x00000000	0.0
11	0x00000000	0.0
12	0x00000000	0.0
13	0x00000000	0.0
14	0x00000000	0.0
15	0x00000000	0.0
16	0x00000000	0.0
17	0x00000000	0.0
18	0x00000000	0.0
19	0x00000000	0.0
20	0x00000000	0.0
21	0x00000000	0.0
22	0x00000000	0.0
23	0x00000000	0.0
24	0x00000000	0.0
25	0x00000000	0.0
26	0x00000000	0.0
27	0x00000000	0.0
28	0x00000000	0.0
29	0x00000000	0.0
30	0x00000000	0.0
31	0x00000000	0.0

val_31 f4 [16]
0	0x00000000	0.0
1	0x00000000	0.0
2	0x00000000	0.0
3	0x00000000	0.0
4	0x00000000	0.0
5	0x00000000	0.0
6	0x00000000	0.0
7	0x00000000	0.0
8	0x00000000	0.0
9	0x00000000	0.0
10	0x00000000	0.0
11	0x00000000	0.0
12	0x00000000	0.0
13	0x00000000	0.0
14	0x00000000	0.0
15	0x00000000	0.0

val_63 f4 [24]
0	0x00000000	0.0
1	0x00000000	0.0
2	0x00000000	0.0
3	0x00000000	0.0
4	0x00000000	0.0
5	0x00000000	0.0
6	0x00000000	0.0
7	0x00000000	0.0
8	0x00000000	0.0
9	0x00000000	0.0
10	0x00000000	0.0
11	0x00000000	0.0
12	0x00000000	0.0
13	0x00000000	0.0
14	0x00000000	0.0
15	0x00000000	0.0
16	0x00000000	0.0
17	0x00000000	0.0
18	0x00000000	0.0
19	0x00000000	0.0
20	0x00000000	0.0
21	0x00000000	0.0
22	0x00000000	0.0
23	0x00000000	0.0

val_127 f4 [40]
0	0x00000000	0.0
1	0x00000000	0.0
2	0x00000000	0.0
3	0x00000000	0.0
4	0x00000000	0.0
5	0x00000000	0.0
6	0x00000000	0.0
7	0x00000000	0.0
8	0x00000000	0.0
9	0x00000000	0.0
10	0x00000000	0.0
11	0x00000000	0.0
12	0x00000000	0.0
13	0x00000000	0.0
14	0x00000000	0.0
15	0x00000000	0.0
16	0x00000000	0.0
17	0x00000000	0.0
18	0x00000000	0.0
19	0x00000000	0.0
20	0x00000000	0.0
21	0x00000000	0.0
22	0x00000000	0.0
23	0x00000000	0.0
24	0x00000000	0.0
25	0x00000000	0.0
26	0x00000000	0.0
27	0x00000000	0.0
28	0x00000000	0.0
29	0x00000000	0.0
30	0x00000000	0.0
31	0x00000000	0.0
32	0x00000000	0.0
33	0x00000000	0.0
34	0x00000000	0.0
35	0x00000000	0.0
36	0x00000000	0.0
37	0x00000000	0.0
38	0x00000000	0.0
39	0x00000000	0.0
